{"format": "graph-model", "generatedBy": "2.4.0", "convertedBy": "TensorFlow.js Converter v3.0.0", "signature": {"inputs": {"image:0": {"name": "image:0", "dtype": "DT_FLOAT", "tensorShape": {"dim": [{"size": "-1"}, {"size": "-1"}, {"size": "-1"}, {"size": "3"}]}}}, "outputs": {"Identity:0": {"name": "Identity:0", "dtype": "DT_FLOAT", "tensorShape": {"dim": [{"size": "-1"}, {"size": "5"}]}}}}, "modelTopology": {"node": [{"name": "StatefulPartitionedCall/model/tf.__operators__.getitem_6/strided_slice/stack", "op": "Const", "attr": {"dtype": {"type": "DT_INT32"}, "value": {"tensor": {"dtype": "DT_INT32", "tensorShape": {"dim": [{"size": "2"}]}}}}}, {"name": "StatefulPartitionedCall/model/tf.__operators__.getitem_6/strided_slice/stack_1", "op": "Const", "attr": {"dtype": {"type": "DT_INT32"}, "value": {"tensor": {"dtype": "DT_INT32", "tensorShape": {"dim": [{"size": "2"}]}}}}}, {"name": "StatefulPartitionedCall/model/tf.__operators__.getitem_6/strided_slice/stack_2", "op": "Const", "attr": {"dtype": {"type": "DT_INT32"}, "value": {"tensor": {"dtype": "DT_INT32", "tensorShape": {"dim": [{"size": "2"}]}}}}}, {"name": "StatefulPartitionedCall/model/tf.compat.v1.nn.conv2d_1/squeeze_batch_dims/strided_slice_1/stack", "op": "Const", "attr": {"dtype": {"type": "DT_INT32"}, "value": {"tensor": {"dtype": "DT_INT32", "tensorShape": {"dim": [{"size": "1"}]}}}}}, {"name": "StatefulPartitionedCall/model/tf.compat.v1.nn.conv2d_1/squeeze_batch_dims/strided_slice_1/stack_1", "op": "Const", "attr": {"dtype": {"type": "DT_INT32"}, "value": {"tensor": {"dtype": "DT_INT32", "tensorShape": {"dim": [{"size": "1"}]}}}}}, {"name": "StatefulPartitionedCall/model/tf.compat.v1.nn.conv2d_1/squeeze_batch_dims/strided_slice_1/stack_2", "op": "Const", "attr": {"dtype": {"type": "DT_INT32"}, "value": {"tensor": {"dtype": "DT_INT32", "tensorShape": {"dim": [{"size": "1"}]}}}}}, {"name": "StatefulPartitionedCall/model/tf.compat.v1.nn.conv2d_1/squeeze_batch_dims/concat/values_0", "op": "Const", "attr": {"dtype": {"type": "DT_INT32"}, "value": {"tensor": {"dtype": "DT_INT32", "tensorShape": {"dim": [{"size": "1"}]}}}}}, {"name": "StatefulPartitionedCall/model/tf.compat.v1.nn.conv2d_1/squeeze_batch_dims/strided_slice/stack", "op": "Const", "attr": {"dtype": {"type": "DT_INT32"}, "value": {"tensor": {"dtype": "DT_INT32", "tensorShape": {"dim": [{"size": "1"}]}}}}}, {"name": "StatefulPartitionedCall/model/tf.compat.v1.nn.conv2d_1/squeeze_batch_dims/strided_slice/stack_1", "op": "Const", "attr": {"dtype": {"type": "DT_INT32"}, "value": {"tensor": {"dtype": "DT_INT32", "tensorShape": {"dim": [{"size": "1"}]}}}}}, {"name": "StatefulPartitionedCall/model/tf.compat.v1.nn.conv2d_1/squeeze_batch_dims/strided_slice/stack_2", "op": "Const", "attr": {"dtype": {"type": "DT_INT32"}, "value": {"tensor": {"dtype": "DT_INT32", "tensorShape": {"dim": [{"size": "1"}]}}}}}, {"name": "StatefulPartitionedCall/model/tf.compat.v1.nn.conv2d_1/squeeze_batch_dims/concat/axis", "op": "Const", "attr": {"dtype": {"type": "DT_INT32"}, "value": {"tensor": {"dtype": "DT_INT32", "tensorShape": {}}}}}, {"name": "StatefulPartitionedCall/model/tf.compat.v1.nn.conv2d_1/squeeze_batch_dims/Conv2D/filter", "op": "Const", "attr": {"value": {"tensor": {"dtype": "DT_FLOAT", "tensorShape": {"dim": [{"size": "3"}, {"size": "3"}, {"size": "2"}, {"size": "2"}]}}}, "dtype": {"type": "DT_FLOAT"}}}, {"name": "StatefulPartitionedCall/model/tf.compat.v1.nn.conv2d_1/squeeze_batch_dims/strided_slice_2/stack", "op": "Const", "attr": {"dtype": {"type": "DT_INT32"}, "value": {"tensor": {"dtype": "DT_INT32", "tensorShape": {"dim": [{"size": "1"}]}}}}}, {"name": "StatefulPartitionedCall/model/tf.compat.v1.nn.conv2d_1/squeeze_batch_dims/strided_slice_2/stack_1", "op": "Const", "attr": {"value": {"tensor": {"dtype": "DT_INT32", "tensorShape": {"dim": [{"size": "1"}]}}}, "dtype": {"type": "DT_INT32"}}}, {"name": "StatefulPartitionedCall/model/tf.compat.v1.nn.conv2d_1/squeeze_batch_dims/strided_slice_2/stack_2", "op": "Const", "attr": {"dtype": {"type": "DT_INT32"}, "value": {"tensor": {"dtype": "DT_INT32", "tensorShape": {"dim": [{"size": "1"}]}}}}}, {"name": "StatefulPartitionedCall/model/tf.compat.v1.nn.conv2d_1/squeeze_batch_dims/concat_1/axis", "op": "Const", "attr": {"dtype": {"type": "DT_INT32"}, "value": {"tensor": {"dtype": "DT_INT32", "tensorShape": {}}}}}, {"name": "StatefulPartitionedCall/model/tf.__operators__.getitem_3/strided_slice/stack", "op": "Const", "attr": {"dtype": {"type": "DT_INT32"}, "value": {"tensor": {"dtype": "DT_INT32", "tensorShape": {"dim": [{"size": "2"}]}}}}}, {"name": "StatefulPartitionedCall/model/tf.__operators__.getitem_3/strided_slice/stack_1", "op": "Const", "attr": {"dtype": {"type": "DT_INT32"}, "value": {"tensor": {"dtype": "DT_INT32", "tensorShape": {"dim": [{"size": "2"}]}}}}}, {"name": "StatefulPartitionedCall/model/tf.__operators__.getitem_3/strided_slice/stack_2", "op": "Const", "attr": {"dtype": {"type": "DT_INT32"}, "value": {"tensor": {"dtype": "DT_INT32", "tensorShape": {"dim": [{"size": "2"}]}}}}}, {"name": "StatefulPartitionedCall/model/tf.__operators__.getitem_7/strided_slice/stack", "op": "Const", "attr": {"value": {"tensor": {"dtype": "DT_INT32", "tensorShape": {"dim": [{"size": "2"}]}}}, "dtype": {"type": "DT_INT32"}}}, {"name": "StatefulPartitionedCall/model/tf.__operators__.getitem_7/strided_slice/stack_1", "op": "Const", "attr": {"value": {"tensor": {"dtype": "DT_INT32", "tensorShape": {"dim": [{"size": "2"}]}}}, "dtype": {"type": "DT_INT32"}}}, {"name": "StatefulPartitionedCall/model/tf.__operators__.getitem_7/strided_slice/stack_2", "op": "Const", "attr": {"dtype": {"type": "DT_INT32"}, "value": {"tensor": {"dtype": "DT_INT32", "tensorShape": {"dim": [{"size": "2"}]}}}}}, {"name": "StatefulPartitionedCall/model/tf.__operators__.getitem_4/strided_slice/stack", "op": "Const", "attr": {"value": {"tensor": {"dtype": "DT_INT32", "tensorShape": {"dim": [{"size": "2"}]}}}, "dtype": {"type": "DT_INT32"}}}, {"name": "StatefulPartitionedCall/model/tf.__operators__.getitem_4/strided_slice/stack_1", "op": "Const", "attr": {"dtype": {"type": "DT_INT32"}, "value": {"tensor": {"dtype": "DT_INT32", "tensorShape": {"dim": [{"size": "2"}]}}}}}, {"name": "StatefulPartitionedCall/model/tf.__operators__.getitem_4/strided_slice/stack_2", "op": "Const", "attr": {"dtype": {"type": "DT_INT32"}, "value": {"tensor": {"dtype": "DT_INT32", "tensorShape": {"dim": [{"size": "2"}]}}}}}, {"name": "StatefulPartitionedCall/model/tf.compat.v1.nn.conv2d_2/squeeze_batch_dims/strided_slice_1/stack", "op": "Const", "attr": {"dtype": {"type": "DT_INT32"}, "value": {"tensor": {"dtype": "DT_INT32", "tensorShape": {"dim": [{"size": "1"}]}}}}}, {"name": "StatefulPartitionedCall/model/tf.compat.v1.nn.conv2d_2/squeeze_batch_dims/strided_slice_1/stack_1", "op": "Const", "attr": {"dtype": {"type": "DT_INT32"}, "value": {"tensor": {"dtype": "DT_INT32", "tensorShape": {"dim": [{"size": "1"}]}}}}}, {"name": "StatefulPartitionedCall/model/tf.compat.v1.nn.conv2d_2/squeeze_batch_dims/strided_slice_1/stack_2", "op": "Const", "attr": {"value": {"tensor": {"dtype": "DT_INT32", "tensorShape": {"dim": [{"size": "1"}]}}}, "dtype": {"type": "DT_INT32"}}}, {"name": "StatefulPartitionedCall/model/tf.compat.v1.nn.conv2d_2/squeeze_batch_dims/concat/values_0", "op": "Const", "attr": {"dtype": {"type": "DT_INT32"}, "value": {"tensor": {"dtype": "DT_INT32", "tensorShape": {"dim": [{"size": "1"}]}}}}}, {"name": "StatefulPartitionedCall/model/tf.__operators__.getitem_1/strided_slice/stack", "op": "Const", "attr": {"dtype": {"type": "DT_INT32"}, "value": {"tensor": {"dtype": "DT_INT32", "tensorShape": {"dim": [{"size": "5"}]}}}}}, {"name": "StatefulPartitionedCall/model/tf.__operators__.getitem_1/strided_slice/stack_1", "op": "Const", "attr": {"value": {"tensor": {"dtype": "DT_INT32", "tensorShape": {"dim": [{"size": "5"}]}}}, "dtype": {"type": "DT_INT32"}}}, {"name": "StatefulPartitionedCall/model/tf.__operators__.getitem_1/strided_slice/stack_2", "op": "Const", "attr": {"dtype": {"type": "DT_INT32"}, "value": {"tensor": {"dtype": "DT_INT32", "tensorShape": {"dim": [{"size": "5"}]}}}}}, {"name": "StatefulPartitionedCall/model/tf.compat.v1.nn.conv2d_2/squeeze_batch_dims/strided_slice/stack", "op": "Const", "attr": {"dtype": {"type": "DT_INT32"}, "value": {"tensor": {"dtype": "DT_INT32", "tensorShape": {"dim": [{"size": "1"}]}}}}}, {"name": "StatefulPartitionedCall/model/tf.compat.v1.nn.conv2d_2/squeeze_batch_dims/strided_slice/stack_1", "op": "Const", "attr": {"dtype": {"type": "DT_INT32"}, "value": {"tensor": {"dtype": "DT_INT32", "tensorShape": {"dim": [{"size": "1"}]}}}}}, {"name": "StatefulPartitionedCall/model/tf.compat.v1.nn.conv2d_2/squeeze_batch_dims/strided_slice/stack_2", "op": "Const", "attr": {"value": {"tensor": {"dtype": "DT_INT32", "tensorShape": {"dim": [{"size": "1"}]}}}, "dtype": {"type": "DT_INT32"}}}, {"name": "StatefulPartitionedCall/model/tf.compat.v1.nn.conv2d_2/squeeze_batch_dims/concat/axis", "op": "Const", "attr": {"value": {"tensor": {"dtype": "DT_INT32", "tensorShape": {}}}, "dtype": {"type": "DT_INT32"}}}, {"name": "StatefulPartitionedCall/model/tf.compat.v1.nn.conv2d_2/squeeze_batch_dims/Conv2D/filter", "op": "Const", "attr": {"dtype": {"type": "DT_FLOAT"}, "value": {"tensor": {"dtype": "DT_FLOAT", "tensorShape": {"dim": [{"size": "3"}, {"size": "3"}, {"size": "2"}, {"size": "2"}]}}}}}, {"name": "StatefulPartitionedCall/model/tf.compat.v1.nn.conv2d_2/squeeze_batch_dims/strided_slice_2/stack", "op": "Const", "attr": {"dtype": {"type": "DT_INT32"}, "value": {"tensor": {"dtype": "DT_INT32", "tensorShape": {"dim": [{"size": "1"}]}}}}}, {"name": "StatefulPartitionedCall/model/tf.compat.v1.nn.conv2d_2/squeeze_batch_dims/strided_slice_2/stack_1", "op": "Const", "attr": {"dtype": {"type": "DT_INT32"}, "value": {"tensor": {"dtype": "DT_INT32", "tensorShape": {"dim": [{"size": "1"}]}}}}}, {"name": "StatefulPartitionedCall/model/tf.compat.v1.nn.conv2d_2/squeeze_batch_dims/strided_slice_2/stack_2", "op": "Const", "attr": {"dtype": {"type": "DT_INT32"}, "value": {"tensor": {"dtype": "DT_INT32", "tensorShape": {"dim": [{"size": "1"}]}}}}}, {"name": "StatefulPartitionedCall/model/tf.compat.v1.nn.conv2d_2/squeeze_batch_dims/concat_1/axis", "op": "Const", "attr": {"value": {"tensor": {"dtype": "DT_INT32", "tensorShape": {}}}, "dtype": {"type": "DT_INT32"}}}, {"name": "StatefulPartitionedCall/model/tf.__operators__.getitem_5/strided_slice/stack", "op": "Const", "attr": {"value": {"tensor": {"dtype": "DT_INT32", "tensorShape": {"dim": [{"size": "2"}]}}}, "dtype": {"type": "DT_INT32"}}}, {"name": "StatefulPartitionedCall/model/tf.__operators__.getitem_5/strided_slice/stack_1", "op": "Const", "attr": {"dtype": {"type": "DT_INT32"}, "value": {"tensor": {"dtype": "DT_INT32", "tensorShape": {"dim": [{"size": "2"}]}}}}}, {"name": "StatefulPartitionedCall/model/tf.__operators__.getitem_5/strided_slice/stack_2", "op": "Const", "attr": {"dtype": {"type": "DT_INT32"}, "value": {"tensor": {"dtype": "DT_INT32", "tensorShape": {"dim": [{"size": "2"}]}}}}}, {"name": "StatefulPartitionedCall/model/tf.__operators__.getitem_2/strided_slice/stack", "op": "Const", "attr": {"dtype": {"type": "DT_INT32"}, "value": {"tensor": {"dtype": "DT_INT32", "tensorShape": {"dim": [{"size": "2"}]}}}}}, {"name": "StatefulPartitionedCall/model/tf.__operators__.getitem_2/strided_slice/stack_1", "op": "Const", "attr": {"value": {"tensor": {"dtype": "DT_INT32", "tensorShape": {"dim": [{"size": "2"}]}}}, "dtype": {"type": "DT_INT32"}}}, {"name": "StatefulPartitionedCall/model/tf.__operators__.getitem_2/strided_slice/stack_2", "op": "Const", "attr": {"value": {"tensor": {"dtype": "DT_INT32", "tensorShape": {"dim": [{"size": "2"}]}}}, "dtype": {"type": "DT_INT32"}}}, {"name": "StatefulPartitionedCall/model/tf.__operators__.eq/Equal/y", "op": "Const", "attr": {"value": {"tensor": {"dtype": "DT_FLOAT", "tensorShape": {}}}, "dtype": {"type": "DT_FLOAT"}}}, {"name": "StatefulPartitionedCall/model/tf.compat.v1.nn.conv2d/squeeze_batch_dims/strided_slice_1/stack", "op": "Const", "attr": {"value": {"tensor": {"dtype": "DT_INT32", "tensorShape": {"dim": [{"size": "1"}]}}}, "dtype": {"type": "DT_INT32"}}}, {"name": "StatefulPartitionedCall/model/tf.compat.v1.nn.conv2d/squeeze_batch_dims/strided_slice_1/stack_1", "op": "Const", "attr": {"value": {"tensor": {"dtype": "DT_INT32", "tensorShape": {"dim": [{"size": "1"}]}}}, "dtype": {"type": "DT_INT32"}}}, {"name": "StatefulPartitionedCall/model/tf.compat.v1.nn.conv2d/squeeze_batch_dims/strided_slice_1/stack_2", "op": "Const", "attr": {"dtype": {"type": "DT_INT32"}, "value": {"tensor": {"dtype": "DT_INT32", "tensorShape": {"dim": [{"size": "1"}]}}}}}, {"name": "StatefulPartitionedCall/model/tf.compat.v1.nn.conv2d/squeeze_batch_dims/concat/values_0", "op": "Const", "attr": {"dtype": {"type": "DT_INT32"}, "value": {"tensor": {"dtype": "DT_INT32", "tensorShape": {"dim": [{"size": "1"}]}}}}}, {"name": "StatefulPartitionedCall/model/tf.math.multiply_2/Mul/y", "op": "Const", "attr": {"dtype": {"type": "DT_FLOAT"}, "value": {"tensor": {"dtype": "DT_FLOAT", "tensorShape": {"dim": [{"size": "2"}]}}}}}, {"name": "unknown_23", "op": "Const", "attr": {"dtype": {"type": "DT_FLOAT"}, "value": {"tensor": {"dtype": "DT_FLOAT", "tensorShape": {}}}}}, {"name": "StatefulPartitionedCall/model/tf.math.multiply/Mul/y", "op": "Const", "attr": {"dtype": {"type": "DT_FLOAT"}, "value": {"tensor": {"dtype": "DT_FLOAT", "tensorShape": {"dim": [{"size": "2"}]}}}}}, {"name": "StatefulPartitionedCall/model/tf.math.reduce_sum/Sum/reduction_indices", "op": "Const", "attr": {"dtype": {"type": "DT_INT32"}, "value": {"tensor": {"dtype": "DT_INT32", "tensorShape": {}}}}}, {"name": "StatefulPartitionedCall/model/model/tf.math.subtract/Sub/y", "op": "Const", "attr": {"dtype": {"type": "DT_FLOAT"}, "value": {"tensor": {"dtype": "DT_FLOAT", "tensorShape": {"dim": [{"size": "3"}]}}}}}, {"name": "StatefulPartitionedCall/model/model/conv2d/Conv2D/ReadVariableOp", "op": "Const", "attr": {"dtype": {"type": "DT_FLOAT"}, "value": {"tensor": {"dtype": "DT_FLOAT", "tensorShape": {"dim": [{"size": "3"}, {"size": "3"}, {"size": "3"}, {"size": "32"}]}}}}}, {"name": "StatefulPartitionedCall/model/model/conv2d/BiasAdd/ReadVariableOp", "op": "Const", "attr": {"value": {"tensor": {"dtype": "DT_FLOAT", "tensorShape": {"dim": [{"size": "32"}]}}}, "dtype": {"type": "DT_FLOAT"}}}, {"name": "StatefulPartitionedCall/model/model/conv2d_1/Conv2D/ReadVariableOp", "op": "Const", "attr": {"dtype": {"type": "DT_FLOAT"}, "value": {"tensor": {"dtype": "DT_FLOAT", "tensorShape": {"dim": [{"size": "3"}, {"size": "3"}, {"size": "32"}, {"size": "32"}]}}}}}, {"name": "StatefulPartitionedCall/model/model/conv2d_1/BiasAdd/ReadVariableOp", "op": "Const", "attr": {"dtype": {"type": "DT_FLOAT"}, "value": {"tensor": {"dtype": "DT_FLOAT", "tensorShape": {"dim": [{"size": "32"}]}}}}}, {"name": "StatefulPartitionedCall/model/model/conv2d_2/Conv2D/ReadVariableOp", "op": "Const", "attr": {"dtype": {"type": "DT_FLOAT"}, "value": {"tensor": {"dtype": "DT_FLOAT", "tensorShape": {"dim": [{"size": "3"}, {"size": "3"}, {"size": "32"}, {"size": "64"}]}}}}}, {"name": "StatefulPartitionedCall/model/model/conv2d_2/BiasAdd/ReadVariableOp", "op": "Const", "attr": {"dtype": {"type": "DT_FLOAT"}, "value": {"tensor": {"dtype": "DT_FLOAT", "tensorShape": {"dim": [{"size": "64"}]}}}}}, {"name": "StatefulPartitionedCall/model/model/conv2d_3/Conv2D/ReadVariableOp", "op": "Const", "attr": {"value": {"tensor": {"dtype": "DT_FLOAT", "tensorShape": {"dim": [{"size": "3"}, {"size": "3"}, {"size": "64"}, {"size": "64"}]}}}, "dtype": {"type": "DT_FLOAT"}}}, {"name": "StatefulPartitionedCall/model/model/conv2d_3/BiasAdd/ReadVariableOp", "op": "Const", "attr": {"dtype": {"type": "DT_FLOAT"}, "value": {"tensor": {"dtype": "DT_FLOAT", "tensorShape": {"dim": [{"size": "64"}]}}}}}, {"name": "StatefulPartitionedCall/model/model/conv2d_4/Conv2D/ReadVariableOp", "op": "Const", "attr": {"value": {"tensor": {"dtype": "DT_FLOAT", "tensorShape": {"dim": [{"size": "3"}, {"size": "3"}, {"size": "64"}, {"size": "128"}]}}}, "dtype": {"type": "DT_FLOAT"}}}, {"name": "StatefulPartitionedCall/model/model/conv2d_4/BiasAdd/ReadVariableOp", "op": "Const", "attr": {"value": {"tensor": {"dtype": "DT_FLOAT", "tensorShape": {"dim": [{"size": "128"}]}}}, "dtype": {"type": "DT_FLOAT"}}}, {"name": "StatefulPartitionedCall/model/model/conv2d_5/Conv2D/ReadVariableOp", "op": "Const", "attr": {"value": {"tensor": {"dtype": "DT_FLOAT", "tensorShape": {"dim": [{"size": "3"}, {"size": "3"}, {"size": "128"}, {"size": "128"}]}}}, "dtype": {"type": "DT_FLOAT"}}}, {"name": "StatefulPartitionedCall/model/model/conv2d_5/BiasAdd/ReadVariableOp", "op": "Const", "attr": {"dtype": {"type": "DT_FLOAT"}, "value": {"tensor": {"dtype": "DT_FLOAT", "tensorShape": {"dim": [{"size": "128"}]}}}}}, {"name": "StatefulPartitionedCall/model/model/conv2d_6/Conv2D/ReadVariableOp", "op": "Const", "attr": {"value": {"tensor": {"dtype": "DT_FLOAT", "tensorShape": {"dim": [{"size": "3"}, {"size": "3"}, {"size": "128"}, {"size": "256"}]}}}, "dtype": {"type": "DT_FLOAT"}}}, {"name": "StatefulPartitionedCall/model/model/conv2d_6/BiasAdd/ReadVariableOp", "op": "Const", "attr": {"value": {"tensor": {"dtype": "DT_FLOAT", "tensorShape": {"dim": [{"size": "256"}]}}}, "dtype": {"type": "DT_FLOAT"}}}, {"name": "StatefulPartitionedCall/model/model/conv2d_7/Conv2D/ReadVariableOp", "op": "Const", "attr": {"value": {"tensor": {"dtype": "DT_FLOAT", "tensorShape": {"dim": [{"size": "3"}, {"size": "3"}, {"size": "256"}, {"size": "256"}]}}}, "dtype": {"type": "DT_FLOAT"}}}, {"name": "StatefulPartitionedCall/model/model/conv2d_7/BiasAdd/ReadVariableOp", "op": "Const", "attr": {"dtype": {"type": "DT_FLOAT"}, "value": {"tensor": {"dtype": "DT_FLOAT", "tensorShape": {"dim": [{"size": "256"}]}}}}}, {"name": "StatefulPartitionedCall/model/model/conv2d_8/Conv2D/ReadVariableOp", "op": "Const", "attr": {"dtype": {"type": "DT_FLOAT"}, "value": {"tensor": {"dtype": "DT_FLOAT", "tensorShape": {"dim": [{"size": "3"}, {"size": "3"}, {"size": "256"}, {"size": "512"}]}}}}}, {"name": "StatefulPartitionedCall/model/model/conv2d_8/BiasAdd/ReadVariableOp", "op": "Const", "attr": {"value": {"tensor": {"dtype": "DT_FLOAT", "tensorShape": {"dim": [{"size": "512"}]}}}, "dtype": {"type": "DT_FLOAT"}}}, {"name": "StatefulPartitionedCall/model/model/conv2d_9/Conv2D/ReadVariableOp", "op": "Const", "attr": {"value": {"tensor": {"dtype": "DT_FLOAT", "tensorShape": {"dim": [{"size": "3"}, {"size": "3"}, {"size": "512"}, {"size": "512"}]}}}, "dtype": {"type": "DT_FLOAT"}}}, {"name": "StatefulPartitionedCall/model/model/conv2d_9/BiasAdd/ReadVariableOp", "op": "Const", "attr": {"dtype": {"type": "DT_FLOAT"}, "value": {"tensor": {"dtype": "DT_FLOAT", "tensorShape": {"dim": [{"size": "512"}]}}}}}, {"name": "StatefulPartitionedCall/model/model/up_sampling2d/strided_slice/stack", "op": "Const", "attr": {"dtype": {"type": "DT_INT32"}, "value": {"tensor": {"dtype": "DT_INT32", "tensorShape": {"dim": [{"size": "1"}]}}}}}, {"name": "StatefulPartitionedCall/model/model/up_sampling2d/strided_slice/stack_1", "op": "Const", "attr": {"dtype": {"type": "DT_INT32"}, "value": {"tensor": {"dtype": "DT_INT32", "tensorShape": {"dim": [{"size": "1"}]}}}}}, {"name": "StatefulPartitionedCall/model/model/up_sampling2d/strided_slice/stack_2", "op": "Const", "attr": {"dtype": {"type": "DT_INT32"}, "value": {"tensor": {"dtype": "DT_INT32", "tensorShape": {"dim": [{"size": "1"}]}}}}}, {"name": "StatefulPartitionedCall/model/model/up_sampling2d/Const", "op": "Const", "attr": {"dtype": {"type": "DT_INT32"}, "value": {"tensor": {"dtype": "DT_INT32", "tensorShape": {"dim": [{"size": "2"}]}}}}}, {"name": "StatefulPartitionedCall/model/model/tf.concat/concat/axis", "op": "Const", "attr": {"dtype": {"type": "DT_INT32"}, "value": {"tensor": {"dtype": "DT_INT32", "tensorShape": {}}}}}, {"name": "StatefulPartitionedCall/model/conv2d/Conv2D/ReadVariableOp", "op": "Const", "attr": {"dtype": {"type": "DT_FLOAT"}, "value": {"tensor": {"dtype": "DT_FLOAT", "tensorShape": {"dim": [{"size": "1"}, {"size": "1"}, {"size": "768"}, {"size": "32"}]}}}}}, {"name": "StatefulPartitionedCall/model/conv2d/BiasAdd/ReadVariableOp", "op": "Const", "attr": {"dtype": {"type": "DT_FLOAT"}, "value": {"tensor": {"dtype": "DT_FLOAT", "tensorShape": {"dim": [{"size": "32"}]}}}}}, {"name": "StatefulPartitionedCall/model/conv2d_1/Conv2D/ReadVariableOp", "op": "Const", "attr": {"dtype": {"type": "DT_FLOAT"}, "value": {"tensor": {"dtype": "DT_FLOAT", "tensorShape": {"dim": [{"size": "11"}, {"size": "11"}, {"size": "32"}, {"size": "4"}]}}}}}, {"name": "StatefulPartitionedCall/model/conv2d_1/BiasAdd/ReadVariableOp", "op": "Const", "attr": {"dtype": {"type": "DT_FLOAT"}, "value": {"tensor": {"dtype": "DT_FLOAT", "tensorShape": {"dim": [{"size": "4"}]}}}}}, {"name": "StatefulPartitionedCall/model/tf.__operators__.getitem/strided_slice/stack", "op": "Const", "attr": {"dtype": {"type": "DT_INT32"}, "value": {"tensor": {"dtype": "DT_INT32", "tensorShape": {"dim": [{"size": "5"}]}}}}}, {"name": "StatefulPartitionedCall/model/tf.__operators__.getitem/strided_slice/stack_1", "op": "Const", "attr": {"dtype": {"type": "DT_INT32"}, "value": {"tensor": {"dtype": "DT_INT32", "tensorShape": {"dim": [{"size": "5"}]}}}}}, {"name": "StatefulPartitionedCall/model/tf.__operators__.getitem/strided_slice/stack_2", "op": "Const", "attr": {"dtype": {"type": "DT_INT32"}, "value": {"tensor": {"dtype": "DT_INT32", "tensorShape": {"dim": [{"size": "5"}]}}}}}, {"name": "StatefulPartitionedCall/model/tf.compat.v1.nn.conv2d/squeeze_batch_dims/strided_slice/stack", "op": "Const", "attr": {"dtype": {"type": "DT_INT32"}, "value": {"tensor": {"dtype": "DT_INT32", "tensorShape": {"dim": [{"size": "1"}]}}}}}, {"name": "StatefulPartitionedCall/model/tf.compat.v1.nn.conv2d/squeeze_batch_dims/strided_slice/stack_1", "op": "Const", "attr": {"dtype": {"type": "DT_INT32"}, "value": {"tensor": {"dtype": "DT_INT32", "tensorShape": {"dim": [{"size": "1"}]}}}}}, {"name": "StatefulPartitionedCall/model/tf.compat.v1.nn.conv2d/squeeze_batch_dims/strided_slice/stack_2", "op": "Const", "attr": {"dtype": {"type": "DT_INT32"}, "value": {"tensor": {"dtype": "DT_INT32", "tensorShape": {"dim": [{"size": "1"}]}}}}}, {"name": "StatefulPartitionedCall/model/tf.compat.v1.nn.conv2d/squeeze_batch_dims/concat/axis", "op": "Const", "attr": {"dtype": {"type": "DT_INT32"}, "value": {"tensor": {"dtype": "DT_INT32", "tensorShape": {}}}}}, {"name": "StatefulPartitionedCall/model/tf.compat.v1.nn.conv2d/squeeze_batch_dims/Conv2D/filter", "op": "Const", "attr": {"dtype": {"type": "DT_FLOAT"}, "value": {"tensor": {"dtype": "DT_FLOAT", "tensorShape": {"dim": [{"size": "7"}, {"size": "7"}, {"size": "2"}, {"size": "1"}]}}}}}, {"name": "StatefulPartitionedCall/model/tf.compat.v1.nn.conv2d/squeeze_batch_dims/strided_slice_2/stack", "op": "Const", "attr": {"dtype": {"type": "DT_INT32"}, "value": {"tensor": {"dtype": "DT_INT32", "tensorShape": {"dim": [{"size": "1"}]}}}}}, {"name": "StatefulPartitionedCall/model/tf.compat.v1.nn.conv2d/squeeze_batch_dims/strided_slice_2/stack_1", "op": "Const", "attr": {"dtype": {"type": "DT_INT32"}, "value": {"tensor": {"dtype": "DT_INT32", "tensorShape": {"dim": [{"size": "1"}]}}}}}, {"name": "StatefulPartitionedCall/model/tf.compat.v1.nn.conv2d/squeeze_batch_dims/strided_slice_2/stack_2", "op": "Const", "attr": {"dtype": {"type": "DT_INT32"}, "value": {"tensor": {"dtype": "DT_INT32", "tensorShape": {"dim": [{"size": "1"}]}}}}}, {"name": "StatefulPartitionedCall/model/tf.compat.v1.nn.conv2d/squeeze_batch_dims/concat_1/axis", "op": "Const", "attr": {"dtype": {"type": "DT_INT32"}, "value": {"tensor": {"dtype": "DT_INT32", "tensorShape": {}}}}}, {"name": "StatefulPartitionedCall/model/tf.math.greater_equal/GreaterEqual/y", "op": "Const", "attr": {"dtype": {"type": "DT_FLOAT"}, "value": {"tensor": {"dtype": "DT_FLOAT", "tensorShape": {}}}}}, {"name": "image", "op": "Placeholder", "attr": {"dtype": {"type": "DT_FLOAT"}, "shape": {"shape": {"dim": [{"size": "-1"}, {"size": "-1"}, {"size": "-1"}, {"size": "3"}]}}}}, {"name": "StatefulPartitionedCall/model/model/tf.math.subtract/Sub", "op": "Sub", "input": ["image", "StatefulPartitionedCall/model/model/tf.math.subtract/Sub/y"], "attr": {"T": {"type": "DT_FLOAT"}}}, {"name": "StatefulPartitionedCall/model/model/conv2d/Relu", "op": "_FusedConv2D", "input": ["StatefulPartitionedCall/model/model/tf.math.subtract/Sub", "StatefulPartitionedCall/model/model/conv2d/Conv2D/ReadVariableOp", "StatefulPartitionedCall/model/model/conv2d/BiasAdd/ReadVariableOp"], "device": "/device:CPU:0", "attr": {"strides": {"list": {"i": ["1", "1", "1", "1"]}}, "T": {"type": "DT_FLOAT"}, "dilations": {"list": {"i": ["1", "1", "1", "1"]}}, "explicit_paddings": {"list": {}}, "num_args": {"i": "1"}, "data_format": {"s": "TkhXQw=="}, "fused_ops": {"list": {"s": ["Qmlhc0FkZA==", "UmVsdQ=="]}}, "padding": {"s": "U0FNRQ=="}, "epsilon": {"f": 0.0}, "use_cudnn_on_gpu": {"b": true}}}, {"name": "StatefulPartitionedCall/model/model/conv2d_1/Relu", "op": "_FusedConv2D", "input": ["StatefulPartitionedCall/model/model/conv2d/Relu", "StatefulPartitionedCall/model/model/conv2d_1/Conv2D/ReadVariableOp", "StatefulPartitionedCall/model/model/conv2d_1/BiasAdd/ReadVariableOp"], "device": "/device:CPU:0", "attr": {"fused_ops": {"list": {"s": ["Qmlhc0FkZA==", "UmVsdQ=="]}}, "epsilon": {"f": 0.0}, "padding": {"s": "U0FNRQ=="}, "use_cudnn_on_gpu": {"b": true}, "strides": {"list": {"i": ["1", "1", "1", "1"]}}, "T": {"type": "DT_FLOAT"}, "num_args": {"i": "1"}, "dilations": {"list": {"i": ["1", "1", "1", "1"]}}, "data_format": {"s": "TkhXQw=="}, "explicit_paddings": {"list": {}}}}, {"name": "StatefulPartitionedCall/model/model/average_pooling2d/AvgPool", "op": "AvgPool", "input": ["StatefulPartitionedCall/model/model/conv2d_1/Relu"], "attr": {"data_format": {"s": "TkhXQw=="}, "strides": {"list": {"i": ["1", "2", "2", "1"]}}, "T": {"type": "DT_FLOAT"}, "padding": {"s": "VkFMSUQ="}, "ksize": {"list": {"i": ["1", "2", "2", "1"]}}}}, {"name": "StatefulPartitionedCall/model/model/conv2d_2/Relu", "op": "_FusedConv2D", "input": ["StatefulPartitionedCall/model/model/average_pooling2d/AvgPool", "StatefulPartitionedCall/model/model/conv2d_2/Conv2D/ReadVariableOp", "StatefulPartitionedCall/model/model/conv2d_2/BiasAdd/ReadVariableOp"], "device": "/device:CPU:0", "attr": {"fused_ops": {"list": {"s": ["Qmlhc0FkZA==", "UmVsdQ=="]}}, "epsilon": {"f": 0.0}, "padding": {"s": "U0FNRQ=="}, "use_cudnn_on_gpu": {"b": true}, "strides": {"list": {"i": ["1", "1", "1", "1"]}}, "T": {"type": "DT_FLOAT"}, "num_args": {"i": "1"}, "dilations": {"list": {"i": ["1", "1", "1", "1"]}}, "data_format": {"s": "TkhXQw=="}, "explicit_paddings": {"list": {}}}}, {"name": "StatefulPartitionedCall/model/model/conv2d_3/Relu", "op": "_FusedConv2D", "input": ["StatefulPartitionedCall/model/model/conv2d_2/Relu", "StatefulPartitionedCall/model/model/conv2d_3/Conv2D/ReadVariableOp", "StatefulPartitionedCall/model/model/conv2d_3/BiasAdd/ReadVariableOp"], "device": "/device:CPU:0", "attr": {"fused_ops": {"list": {"s": ["Qmlhc0FkZA==", "UmVsdQ=="]}}, "epsilon": {"f": 0.0}, "padding": {"s": "U0FNRQ=="}, "use_cudnn_on_gpu": {"b": true}, "strides": {"list": {"i": ["1", "1", "1", "1"]}}, "T": {"type": "DT_FLOAT"}, "num_args": {"i": "1"}, "dilations": {"list": {"i": ["1", "1", "1", "1"]}}, "data_format": {"s": "TkhXQw=="}, "explicit_paddings": {"list": {}}}}, {"name": "StatefulPartitionedCall/model/model/average_pooling2d_1/AvgPool", "op": "AvgPool", "input": ["StatefulPartitionedCall/model/model/conv2d_3/Relu"], "attr": {"T": {"type": "DT_FLOAT"}, "padding": {"s": "VkFMSUQ="}, "ksize": {"list": {"i": ["1", "2", "2", "1"]}}, "strides": {"list": {"i": ["1", "2", "2", "1"]}}, "data_format": {"s": "TkhXQw=="}}}, {"name": "StatefulPartitionedCall/model/model/conv2d_4/Relu", "op": "_FusedConv2D", "input": ["StatefulPartitionedCall/model/model/average_pooling2d_1/AvgPool", "StatefulPartitionedCall/model/model/conv2d_4/Conv2D/ReadVariableOp", "StatefulPartitionedCall/model/model/conv2d_4/BiasAdd/ReadVariableOp"], "device": "/device:CPU:0", "attr": {"explicit_paddings": {"list": {}}, "epsilon": {"f": 0.0}, "num_args": {"i": "1"}, "strides": {"list": {"i": ["1", "1", "1", "1"]}}, "fused_ops": {"list": {"s": ["Qmlhc0FkZA==", "UmVsdQ=="]}}, "use_cudnn_on_gpu": {"b": true}, "T": {"type": "DT_FLOAT"}, "dilations": {"list": {"i": ["1", "1", "1", "1"]}}, "padding": {"s": "U0FNRQ=="}, "data_format": {"s": "TkhXQw=="}}}, {"name": "StatefulPartitionedCall/model/model/conv2d_5/Relu", "op": "_FusedConv2D", "input": ["StatefulPartitionedCall/model/model/conv2d_4/Relu", "StatefulPartitionedCall/model/model/conv2d_5/Conv2D/ReadVariableOp", "StatefulPartitionedCall/model/model/conv2d_5/BiasAdd/ReadVariableOp"], "device": "/device:CPU:0", "attr": {"strides": {"list": {"i": ["1", "1", "1", "1"]}}, "T": {"type": "DT_FLOAT"}, "dilations": {"list": {"i": ["1", "1", "1", "1"]}}, "explicit_paddings": {"list": {}}, "num_args": {"i": "1"}, "data_format": {"s": "TkhXQw=="}, "fused_ops": {"list": {"s": ["Qmlhc0FkZA==", "UmVsdQ=="]}}, "padding": {"s": "U0FNRQ=="}, "epsilon": {"f": 0.0}, "use_cudnn_on_gpu": {"b": true}}}, {"name": "StatefulPartitionedCall/model/model/average_pooling2d_2/AvgPool", "op": "AvgPool", "input": ["StatefulPartitionedCall/model/model/conv2d_5/Relu"], "attr": {"data_format": {"s": "TkhXQw=="}, "strides": {"list": {"i": ["1", "2", "2", "1"]}}, "T": {"type": "DT_FLOAT"}, "padding": {"s": "VkFMSUQ="}, "ksize": {"list": {"i": ["1", "2", "2", "1"]}}}}, {"name": "StatefulPartitionedCall/model/model/conv2d_6/Relu", "op": "_FusedConv2D", "input": ["StatefulPartitionedCall/model/model/average_pooling2d_2/AvgPool", "StatefulPartitionedCall/model/model/conv2d_6/Conv2D/ReadVariableOp", "StatefulPartitionedCall/model/model/conv2d_6/BiasAdd/ReadVariableOp"], "device": "/device:CPU:0", "attr": {"fused_ops": {"list": {"s": ["Qmlhc0FkZA==", "UmVsdQ=="]}}, "epsilon": {"f": 0.0}, "padding": {"s": "U0FNRQ=="}, "use_cudnn_on_gpu": {"b": true}, "strides": {"list": {"i": ["1", "1", "1", "1"]}}, "T": {"type": "DT_FLOAT"}, "num_args": {"i": "1"}, "dilations": {"list": {"i": ["1", "1", "1", "1"]}}, "data_format": {"s": "TkhXQw=="}, "explicit_paddings": {"list": {}}}}, {"name": "StatefulPartitionedCall/model/model/conv2d_7/Relu", "op": "_FusedConv2D", "input": ["StatefulPartitionedCall/model/model/conv2d_6/Relu", "StatefulPartitionedCall/model/model/conv2d_7/Conv2D/ReadVariableOp", "StatefulPartitionedCall/model/model/conv2d_7/BiasAdd/ReadVariableOp"], "device": "/device:CPU:0", "attr": {"fused_ops": {"list": {"s": ["Qmlhc0FkZA==", "UmVsdQ=="]}}, "use_cudnn_on_gpu": {"b": true}, "padding": {"s": "U0FNRQ=="}, "strides": {"list": {"i": ["1", "1", "1", "1"]}}, "dilations": {"list": {"i": ["1", "1", "1", "1"]}}, "data_format": {"s": "TkhXQw=="}, "epsilon": {"f": 0.0}, "num_args": {"i": "1"}, "T": {"type": "DT_FLOAT"}, "explicit_paddings": {"list": {}}}}, {"name": "StatefulPartitionedCall/model/model/average_pooling2d_3/AvgPool", "op": "AvgPool", "input": ["StatefulPartitionedCall/model/model/conv2d_7/Relu"], "attr": {"padding": {"s": "VkFMSUQ="}, "ksize": {"list": {"i": ["1", "2", "2", "1"]}}, "strides": {"list": {"i": ["1", "2", "2", "1"]}}, "data_format": {"s": "TkhXQw=="}, "T": {"type": "DT_FLOAT"}}}, {"name": "StatefulPartitionedCall/model/model/conv2d_8/Relu", "op": "_FusedConv2D", "input": ["StatefulPartitionedCall/model/model/average_pooling2d_3/AvgPool", "StatefulPartitionedCall/model/model/conv2d_8/Conv2D/ReadVariableOp", "StatefulPartitionedCall/model/model/conv2d_8/BiasAdd/ReadVariableOp"], "device": "/device:CPU:0", "attr": {"strides": {"list": {"i": ["1", "1", "1", "1"]}}, "dilations": {"list": {"i": ["1", "1", "1", "1"]}}, "T": {"type": "DT_FLOAT"}, "data_format": {"s": "TkhXQw=="}, "explicit_paddings": {"list": {}}, "fused_ops": {"list": {"s": ["Qmlhc0FkZA==", "UmVsdQ=="]}}, "padding": {"s": "U0FNRQ=="}, "epsilon": {"f": 0.0}, "num_args": {"i": "1"}, "use_cudnn_on_gpu": {"b": true}}}, {"name": "StatefulPartitionedCall/model/model/conv2d_9/Relu", "op": "_FusedConv2D", "input": ["StatefulPartitionedCall/model/model/conv2d_8/Relu", "StatefulPartitionedCall/model/model/conv2d_9/Conv2D/ReadVariableOp", "StatefulPartitionedCall/model/model/conv2d_9/BiasAdd/ReadVariableOp"], "device": "/device:CPU:0", "attr": {"strides": {"list": {"i": ["1", "1", "1", "1"]}}, "dilations": {"list": {"i": ["1", "1", "1", "1"]}}, "T": {"type": "DT_FLOAT"}, "data_format": {"s": "TkhXQw=="}, "explicit_paddings": {"list": {}}, "fused_ops": {"list": {"s": ["Qmlhc0FkZA==", "UmVsdQ=="]}}, "padding": {"s": "U0FNRQ=="}, "epsilon": {"f": 0.0}, "num_args": {"i": "1"}, "use_cudnn_on_gpu": {"b": true}}}, {"name": "StatefulPartitionedCall/model/model/up_sampling2d/Shape", "op": "Shape", "input": ["StatefulPartitionedCall/model/model/conv2d_9/Relu"], "attr": {"T": {"type": "DT_FLOAT"}, "out_type": {"type": "DT_INT32"}}}, {"name": "StatefulPartitionedCall/model/model/up_sampling2d/strided_slice", "op": "StridedSlice", "input": ["StatefulPartitionedCall/model/model/up_sampling2d/Shape", "StatefulPartitionedCall/model/model/up_sampling2d/strided_slice/stack", "StatefulPartitionedCall/model/model/up_sampling2d/strided_slice/stack_1", "StatefulPartitionedCall/model/model/up_sampling2d/strided_slice/stack_2"], "attr": {"ellipsis_mask": {"i": "0"}, "end_mask": {"i": "0"}, "begin_mask": {"i": "0"}, "Index": {"type": "DT_INT32"}, "new_axis_mask": {"i": "0"}, "T": {"type": "DT_INT32"}, "shrink_axis_mask": {"i": "0"}}}, {"name": "StatefulPartitionedCall/model/model/up_sampling2d/mul", "op": "Mul", "input": ["StatefulPartitionedCall/model/model/up_sampling2d/strided_slice", "StatefulPartitionedCall/model/model/up_sampling2d/Const"], "attr": {"T": {"type": "DT_INT32"}}}, {"name": "StatefulPartitionedCall/model/model/up_sampling2d/resize/ResizeNearestNeighbor", "op": "ResizeNearestNeighbor", "input": ["StatefulPartitionedCall/model/model/conv2d_9/Relu", "StatefulPartitionedCall/model/model/up_sampling2d/mul"], "attr": {"T": {"type": "DT_FLOAT"}, "half_pixel_centers": {"b": true}, "align_corners": {"b": false}}}, {"name": "StatefulPartitionedCall/model/model/tf.concat/concat", "op": "ConcatV2", "input": ["StatefulPartitionedCall/model/model/conv2d_7/Relu", "StatefulPartitionedCall/model/model/up_sampling2d/resize/ResizeNearestNeighbor", "StatefulPartitionedCall/model/model/tf.concat/concat/axis"], "attr": {"Tidx": {"type": "DT_INT32"}, "N": {"i": "2"}, "T": {"type": "DT_FLOAT"}}}, {"name": "StatefulPartitionedCall/model/conv2d/BiasAdd", "op": "_FusedConv2D", "input": ["StatefulPartitionedCall/model/model/tf.concat/concat", "StatefulPartitionedCall/model/conv2d/Conv2D/ReadVariableOp", "StatefulPartitionedCall/model/conv2d/BiasAdd/ReadVariableOp"], "device": "/device:CPU:0", "attr": {"use_cudnn_on_gpu": {"b": true}, "padding": {"s": "U0FNRQ=="}, "dilations": {"list": {"i": ["1", "1", "1", "1"]}}, "explicit_paddings": {"list": {}}, "num_args": {"i": "1"}, "data_format": {"s": "TkhXQw=="}, "strides": {"list": {"i": ["1", "1", "1", "1"]}}, "fused_ops": {"list": {"s": ["Qmlhc0FkZA=="]}}, "epsilon": {"f": 0.0}, "T": {"type": "DT_FLOAT"}}}, {"name": "StatefulPartitionedCall/model/conv2d_1/Conv2D", "op": "Conv2D", "input": ["StatefulPartitionedCall/model/conv2d/BiasAdd", "StatefulPartitionedCall/model/conv2d_1/Conv2D/ReadVariableOp"], "device": "/device:CPU:0", "attr": {"use_cudnn_on_gpu": {"b": true}, "padding": {"s": "U0FNRQ=="}, "dilations": {"list": {"i": ["1", "1", "1", "1"]}}, "explicit_paddings": {"list": {}}, "strides": {"list": {"i": ["1", "1", "1", "1"]}}, "data_format": {"s": "TkhXQw=="}, "T": {"type": "DT_FLOAT"}}}, {"name": "StatefulPartitionedCall/model/conv2d_1/BiasAdd", "op": "BiasAdd", "input": ["StatefulPartitionedCall/model/conv2d_1/Conv2D", "StatefulPartitionedCall/model/conv2d_1/BiasAdd/ReadVariableOp"], "attr": {"data_format": {"s": "TkhXQw=="}, "T": {"type": "DT_FLOAT"}}}, {"name": "ConstantFolding/StatefulPartitionedCall/model/tf.stack/stack_const_axis", "op": "Const", "input": ["^StatefulPartitionedCall/model/conv2d_1/BiasAdd"], "attr": {"value": {"tensor": {"dtype": "DT_INT32", "tensorShape": {}}}, "dtype": {"type": "DT_INT32"}}}, {"name": "StatefulPartitionedCall/model/tf.stack/stack", "op": "ExpandDims", "input": ["StatefulPartitionedCall/model/conv2d_1/BiasAdd", "ConstantFolding/StatefulPartitionedCall/model/tf.stack/stack_const_axis"], "attr": {"Tdim": {"type": "DT_INT32"}, "T": {"type": "DT_FLOAT"}}}, {"name": "StatefulPartitionedCall/model/tf.__operators__.getitem_1/strided_slice", "op": "StridedSlice", "input": ["StatefulPartitionedCall/model/tf.stack/stack", "StatefulPartitionedCall/model/tf.__operators__.getitem_1/strided_slice/stack", "StatefulPartitionedCall/model/tf.__operators__.getitem_1/strided_slice/stack_1", "StatefulPartitionedCall/model/tf.__operators__.getitem_1/strided_slice/stack_2"], "attr": {"Index": {"type": "DT_INT32"}, "new_axis_mask": {"i": "0"}, "T": {"type": "DT_FLOAT"}, "shrink_axis_mask": {"i": "0"}, "ellipsis_mask": {"i": "0"}, "end_mask": {"i": "15"}, "begin_mask": {"i": "15"}}}, {"name": "StatefulPartitionedCall/model/tf.__operators__.getitem/strided_slice", "op": "StridedSlice", "input": ["StatefulPartitionedCall/model/tf.stack/stack", "StatefulPartitionedCall/model/tf.__operators__.getitem/strided_slice/stack", "StatefulPartitionedCall/model/tf.__operators__.getitem/strided_slice/stack_1", "StatefulPartitionedCall/model/tf.__operators__.getitem/strided_slice/stack_2"], "attr": {"end_mask": {"i": "15"}, "new_axis_mask": {"i": "0"}, "begin_mask": {"i": "15"}, "T": {"type": "DT_FLOAT"}, "ellipsis_mask": {"i": "0"}, "Index": {"type": "DT_INT32"}, "shrink_axis_mask": {"i": "0"}}}, {"name": "StatefulPartitionedCall/model/tf.compat.v1.nn.conv2d_2/squeeze_batch_dims/Shape_1", "op": "Shape", "input": ["StatefulPartitionedCall/model/tf.__operators__.getitem_1/strided_slice"], "attr": {"out_type": {"type": "DT_INT32"}, "T": {"type": "DT_FLOAT"}}}, {"name": "StatefulPartitionedCall/model/tf.compat.v1.nn.conv2d_2/squeeze_batch_dims/Shape", "op": "Shape", "input": ["StatefulPartitionedCall/model/tf.__operators__.getitem_1/strided_slice"], "attr": {"out_type": {"type": "DT_INT32"}, "T": {"type": "DT_FLOAT"}}}, {"name": "StatefulPartitionedCall/model/tf.compat.v1.nn.conv2d_1/squeeze_batch_dims/Shape_1", "op": "Shape", "input": ["StatefulPartitionedCall/model/tf.__operators__.getitem/strided_slice"], "attr": {"out_type": {"type": "DT_INT32"}, "T": {"type": "DT_FLOAT"}}}, {"name": "StatefulPartitionedCall/model/tf.compat.v1.nn.conv2d_1/squeeze_batch_dims/Shape", "op": "Shape", "input": ["StatefulPartitionedCall/model/tf.__operators__.getitem/strided_slice"], "attr": {"out_type": {"type": "DT_INT32"}, "T": {"type": "DT_FLOAT"}}}, {"name": "StatefulPartitionedCall/model/tf.math.multiply/Mul", "op": "Mul", "input": ["StatefulPartitionedCall/model/tf.__operators__.getitem/strided_slice", "StatefulPartitionedCall/model/tf.math.multiply/Mul/y"], "attr": {"T": {"type": "DT_FLOAT"}}}, {"name": "StatefulPartitionedCall/model/tf.compat.v1.nn.conv2d_2/squeeze_batch_dims/strided_slice_1", "op": "StridedSlice", "input": ["StatefulPartitionedCall/model/tf.compat.v1.nn.conv2d_2/squeeze_batch_dims/Shape_1", "StatefulPartitionedCall/model/tf.compat.v1.nn.conv2d_2/squeeze_batch_dims/strided_slice_1/stack", "StatefulPartitionedCall/model/tf.compat.v1.nn.conv2d_2/squeeze_batch_dims/strided_slice_1/stack_1", "StatefulPartitionedCall/model/tf.compat.v1.nn.conv2d_2/squeeze_batch_dims/strided_slice_1/stack_2"], "attr": {"new_axis_mask": {"i": "0"}, "end_mask": {"i": "0"}, "shrink_axis_mask": {"i": "0"}, "begin_mask": {"i": "1"}, "T": {"type": "DT_INT32"}, "ellipsis_mask": {"i": "0"}, "Index": {"type": "DT_INT32"}}}, {"name": "StatefulPartitionedCall/model/tf.compat.v1.nn.conv2d_2/squeeze_batch_dims/strided_slice", "op": "StridedSlice", "input": ["StatefulPartitionedCall/model/tf.compat.v1.nn.conv2d_2/squeeze_batch_dims/Shape", "StatefulPartitionedCall/model/tf.compat.v1.nn.conv2d_2/squeeze_batch_dims/strided_slice/stack", "StatefulPartitionedCall/model/tf.compat.v1.nn.conv2d_2/squeeze_batch_dims/strided_slice/stack_1", "StatefulPartitionedCall/model/tf.compat.v1.nn.conv2d_2/squeeze_batch_dims/strided_slice/stack_2"], "attr": {"T": {"type": "DT_INT32"}, "new_axis_mask": {"i": "0"}, "ellipsis_mask": {"i": "0"}, "begin_mask": {"i": "0"}, "Index": {"type": "DT_INT32"}, "end_mask": {"i": "1"}, "shrink_axis_mask": {"i": "0"}}}, {"name": "StatefulPartitionedCall/model/tf.compat.v1.nn.conv2d_1/squeeze_batch_dims/strided_slice_1", "op": "StridedSlice", "input": ["StatefulPartitionedCall/model/tf.compat.v1.nn.conv2d_1/squeeze_batch_dims/Shape_1", "StatefulPartitionedCall/model/tf.compat.v1.nn.conv2d_1/squeeze_batch_dims/strided_slice_1/stack", "StatefulPartitionedCall/model/tf.compat.v1.nn.conv2d_1/squeeze_batch_dims/strided_slice_1/stack_1", "StatefulPartitionedCall/model/tf.compat.v1.nn.conv2d_1/squeeze_batch_dims/strided_slice_1/stack_2"], "attr": {"new_axis_mask": {"i": "0"}, "end_mask": {"i": "0"}, "shrink_axis_mask": {"i": "0"}, "begin_mask": {"i": "1"}, "T": {"type": "DT_INT32"}, "ellipsis_mask": {"i": "0"}, "Index": {"type": "DT_INT32"}}}, {"name": "StatefulPartitionedCall/model/tf.compat.v1.nn.conv2d_1/squeeze_batch_dims/strided_slice", "op": "StridedSlice", "input": ["StatefulPartitionedCall/model/tf.compat.v1.nn.conv2d_1/squeeze_batch_dims/Shape", "StatefulPartitionedCall/model/tf.compat.v1.nn.conv2d_1/squeeze_batch_dims/strided_slice/stack", "StatefulPartitionedCall/model/tf.compat.v1.nn.conv2d_1/squeeze_batch_dims/strided_slice/stack_1", "StatefulPartitionedCall/model/tf.compat.v1.nn.conv2d_1/squeeze_batch_dims/strided_slice/stack_2"], "attr": {"end_mask": {"i": "1"}, "T": {"type": "DT_INT32"}, "shrink_axis_mask": {"i": "0"}, "ellipsis_mask": {"i": "0"}, "begin_mask": {"i": "0"}, "Index": {"type": "DT_INT32"}, "new_axis_mask": {"i": "0"}}}, {"name": "StatefulPartitionedCall/model/tf.math.square/Square", "op": "Square", "input": ["StatefulPartitionedCall/model/tf.math.multiply/Mul"], "attr": {"T": {"type": "DT_FLOAT"}}}, {"name": "StatefulPartitionedCall/model/tf.compat.v1.nn.conv2d_2/squeeze_batch_dims/concat", "op": "ConcatV2", "input": ["StatefulPartitionedCall/model/tf.compat.v1.nn.conv2d_2/squeeze_batch_dims/concat/values_0", "StatefulPartitionedCall/model/tf.compat.v1.nn.conv2d_2/squeeze_batch_dims/strided_slice", "StatefulPartitionedCall/model/tf.compat.v1.nn.conv2d_2/squeeze_batch_dims/concat/axis"], "attr": {"Tidx": {"type": "DT_INT32"}, "N": {"i": "2"}, "T": {"type": "DT_INT32"}}}, {"name": "StatefulPartitionedCall/model/tf.compat.v1.nn.conv2d_1/squeeze_batch_dims/concat", "op": "ConcatV2", "input": ["StatefulPartitionedCall/model/tf.compat.v1.nn.conv2d_1/squeeze_batch_dims/concat/values_0", "StatefulPartitionedCall/model/tf.compat.v1.nn.conv2d_1/squeeze_batch_dims/strided_slice", "StatefulPartitionedCall/model/tf.compat.v1.nn.conv2d_1/squeeze_batch_dims/concat/axis"], "attr": {"Tidx": {"type": "DT_INT32"}, "N": {"i": "2"}, "T": {"type": "DT_INT32"}}}, {"name": "StatefulPartitionedCall/model/tf.math.reduce_sum/Sum", "op": "Sum", "input": ["StatefulPartitionedCall/model/tf.math.square/Square", "StatefulPartitionedCall/model/tf.math.reduce_sum/Sum/reduction_indices"], "attr": {"T": {"type": "DT_FLOAT"}, "keep_dims": {"b": true}, "Tidx": {"type": "DT_INT32"}}}, {"name": "StatefulPartitionedCall/model/tf.compat.v1.nn.conv2d_2/squeeze_batch_dims/Reshape", "op": "Reshape", "input": ["StatefulPartitionedCall/model/tf.__operators__.getitem_1/strided_slice", "StatefulPartitionedCall/model/tf.compat.v1.nn.conv2d_2/squeeze_batch_dims/concat"], "attr": {"Tshape": {"type": "DT_INT32"}, "T": {"type": "DT_FLOAT"}}}, {"name": "StatefulPartitionedCall/model/tf.compat.v1.nn.conv2d_1/squeeze_batch_dims/Reshape", "op": "Reshape", "input": ["StatefulPartitionedCall/model/tf.__operators__.getitem/strided_slice", "StatefulPartitionedCall/model/tf.compat.v1.nn.conv2d_1/squeeze_batch_dims/concat"], "attr": {"T": {"type": "DT_FLOAT"}, "Tshape": {"type": "DT_INT32"}}}, {"name": "StatefulPartitionedCall/model/tf.math.multiply_1/Mul", "op": "Mul", "input": ["unknown_23", "StatefulPartitionedCall/model/tf.math.reduce_sum/Sum"], "attr": {"T": {"type": "DT_FLOAT"}}}, {"name": "StatefulPartitionedCall/model/tf.compat.v1.nn.conv2d_2/squeeze_batch_dims/Conv2D", "op": "Conv2D", "input": ["StatefulPartitionedCall/model/tf.compat.v1.nn.conv2d_2/squeeze_batch_dims/Reshape", "StatefulPartitionedCall/model/tf.compat.v1.nn.conv2d_2/squeeze_batch_dims/Conv2D/filter"], "device": "/device:CPU:0", "attr": {"explicit_paddings": {"list": {}}, "padding": {"s": "U0FNRQ=="}, "use_cudnn_on_gpu": {"b": true}, "strides": {"list": {"i": ["1", "1", "1", "1"]}}, "T": {"type": "DT_FLOAT"}, "dilations": {"list": {"i": ["1", "1", "1", "1"]}}, "data_format": {"s": "TkhXQw=="}}}, {"name": "StatefulPartitionedCall/model/tf.compat.v1.nn.conv2d_1/squeeze_batch_dims/Conv2D", "op": "Conv2D", "input": ["StatefulPartitionedCall/model/tf.compat.v1.nn.conv2d_1/squeeze_batch_dims/Reshape", "StatefulPartitionedCall/model/tf.compat.v1.nn.conv2d_1/squeeze_batch_dims/Conv2D/filter"], "device": "/device:CPU:0", "attr": {"dilations": {"list": {"i": ["1", "1", "1", "1"]}}, "explicit_paddings": {"list": {}}, "T": {"type": "DT_FLOAT"}, "data_format": {"s": "TkhXQw=="}, "use_cudnn_on_gpu": {"b": true}, "strides": {"list": {"i": ["1", "1", "1", "1"]}}, "padding": {"s": "U0FNRQ=="}}}, {"name": "StatefulPartitionedCall/model/tf.math.exp/Exp", "op": "Exp", "input": ["StatefulPartitionedCall/model/tf.math.multiply_1/Mul"], "attr": {"T": {"type": "DT_FLOAT"}}}, {"name": "StatefulPartitionedCall/model/tf.compat.v1.nn.conv2d_2/squeeze_batch_dims/Shape_2", "op": "Shape", "input": ["StatefulPartitionedCall/model/tf.compat.v1.nn.conv2d_2/squeeze_batch_dims/Conv2D"], "attr": {"T": {"type": "DT_FLOAT"}, "out_type": {"type": "DT_INT32"}}}, {"name": "StatefulPartitionedCall/model/tf.compat.v1.nn.conv2d_1/squeeze_batch_dims/Shape_2", "op": "Shape", "input": ["StatefulPartitionedCall/model/tf.compat.v1.nn.conv2d_1/squeeze_batch_dims/Conv2D"], "attr": {"out_type": {"type": "DT_INT32"}, "T": {"type": "DT_FLOAT"}}}, {"name": "StatefulPartitionedCall/model/tf.math.multiply_2/Mul", "op": "Mul", "input": ["StatefulPartitionedCall/model/tf.math.multiply_2/Mul/y", "StatefulPartitionedCall/model/tf.math.exp/Exp"], "attr": {"_grappler_ArithmeticOptimizer_MinimizeBroadcasts": {"b": true}, "T": {"type": "DT_FLOAT"}}}, {"name": "StatefulPartitionedCall/model/tf.compat.v1.nn.conv2d_2/squeeze_batch_dims/strided_slice_2", "op": "StridedSlice", "input": ["StatefulPartitionedCall/model/tf.compat.v1.nn.conv2d_2/squeeze_batch_dims/Shape_2", "StatefulPartitionedCall/model/tf.compat.v1.nn.conv2d_2/squeeze_batch_dims/strided_slice_2/stack", "StatefulPartitionedCall/model/tf.compat.v1.nn.conv2d_2/squeeze_batch_dims/strided_slice_2/stack_1", "StatefulPartitionedCall/model/tf.compat.v1.nn.conv2d_2/squeeze_batch_dims/strided_slice_2/stack_2"], "attr": {"T": {"type": "DT_INT32"}, "new_axis_mask": {"i": "0"}, "ellipsis_mask": {"i": "0"}, "begin_mask": {"i": "0"}, "Index": {"type": "DT_INT32"}, "end_mask": {"i": "1"}, "shrink_axis_mask": {"i": "0"}}}, {"name": "StatefulPartitionedCall/model/tf.compat.v1.nn.conv2d_1/squeeze_batch_dims/strided_slice_2", "op": "StridedSlice", "input": ["StatefulPartitionedCall/model/tf.compat.v1.nn.conv2d_1/squeeze_batch_dims/Shape_2", "StatefulPartitionedCall/model/tf.compat.v1.nn.conv2d_1/squeeze_batch_dims/strided_slice_2/stack", "StatefulPartitionedCall/model/tf.compat.v1.nn.conv2d_1/squeeze_batch_dims/strided_slice_2/stack_1", "StatefulPartitionedCall/model/tf.compat.v1.nn.conv2d_1/squeeze_batch_dims/strided_slice_2/stack_2"], "attr": {"new_axis_mask": {"i": "0"}, "end_mask": {"i": "1"}, "shrink_axis_mask": {"i": "0"}, "begin_mask": {"i": "0"}, "T": {"type": "DT_INT32"}, "ellipsis_mask": {"i": "0"}, "Index": {"type": "DT_INT32"}}}, {"name": "StatefulPartitionedCall/model/tf.math.multiply_3/Mul", "op": "Mul", "input": ["StatefulPartitionedCall/model/tf.math.multiply_2/Mul", "StatefulPartitionedCall/model/tf.__operators__.getitem/strided_slice"], "attr": {"_grappler_ArithmeticOptimizer_MinimizeBroadcasts": {"b": true}, "T": {"type": "DT_FLOAT"}}}, {"name": "StatefulPartitionedCall/model/tf.compat.v1.nn.conv2d_2/squeeze_batch_dims/concat_1", "op": "ConcatV2", "input": ["StatefulPartitionedCall/model/tf.compat.v1.nn.conv2d_2/squeeze_batch_dims/strided_slice_1", "StatefulPartitionedCall/model/tf.compat.v1.nn.conv2d_2/squeeze_batch_dims/strided_slice_2", "StatefulPartitionedCall/model/tf.compat.v1.nn.conv2d_2/squeeze_batch_dims/concat_1/axis"], "attr": {"Tidx": {"type": "DT_INT32"}, "N": {"i": "2"}, "T": {"type": "DT_INT32"}}}, {"name": "StatefulPartitionedCall/model/tf.compat.v1.nn.conv2d_1/squeeze_batch_dims/concat_1", "op": "ConcatV2", "input": ["StatefulPartitionedCall/model/tf.compat.v1.nn.conv2d_1/squeeze_batch_dims/strided_slice_1", "StatefulPartitionedCall/model/tf.compat.v1.nn.conv2d_1/squeeze_batch_dims/strided_slice_2", "StatefulPartitionedCall/model/tf.compat.v1.nn.conv2d_1/squeeze_batch_dims/concat_1/axis"], "attr": {"T": {"type": "DT_INT32"}, "Tidx": {"type": "DT_INT32"}, "N": {"i": "2"}}}, {"name": "StatefulPartitionedCall/model/tf.compat.v1.nn.conv2d/squeeze_batch_dims/Shape_1", "op": "Shape", "input": ["StatefulPartitionedCall/model/tf.math.multiply_3/Mul"], "attr": {"T": {"type": "DT_FLOAT"}, "out_type": {"type": "DT_INT32"}}}, {"name": "StatefulPartitionedCall/model/tf.compat.v1.nn.conv2d/squeeze_batch_dims/Shape", "op": "Shape", "input": ["StatefulPartitionedCall/model/tf.math.multiply_3/Mul"], "attr": {"T": {"type": "DT_FLOAT"}, "out_type": {"type": "DT_INT32"}}}, {"name": "StatefulPartitionedCall/model/tf.compat.v1.nn.conv2d_2/squeeze_batch_dims/Reshape_1", "op": "Reshape", "input": ["StatefulPartitionedCall/model/tf.compat.v1.nn.conv2d_2/squeeze_batch_dims/Conv2D", "StatefulPartitionedCall/model/tf.compat.v1.nn.conv2d_2/squeeze_batch_dims/concat_1"], "attr": {"T": {"type": "DT_FLOAT"}, "Tshape": {"type": "DT_INT32"}}}, {"name": "StatefulPartitionedCall/model/tf.compat.v1.nn.conv2d_1/squeeze_batch_dims/Reshape_1", "op": "Reshape", "input": ["StatefulPartitionedCall/model/tf.compat.v1.nn.conv2d_1/squeeze_batch_dims/Conv2D", "StatefulPartitionedCall/model/tf.compat.v1.nn.conv2d_1/squeeze_batch_dims/concat_1"], "attr": {"Tshape": {"type": "DT_INT32"}, "T": {"type": "DT_FLOAT"}}}, {"name": "StatefulPartitionedCall/model/tf.compat.v1.nn.conv2d/squeeze_batch_dims/strided_slice_1", "op": "StridedSlice", "input": ["StatefulPartitionedCall/model/tf.compat.v1.nn.conv2d/squeeze_batch_dims/Shape_1", "StatefulPartitionedCall/model/tf.compat.v1.nn.conv2d/squeeze_batch_dims/strided_slice_1/stack", "StatefulPartitionedCall/model/tf.compat.v1.nn.conv2d/squeeze_batch_dims/strided_slice_1/stack_1", "StatefulPartitionedCall/model/tf.compat.v1.nn.conv2d/squeeze_batch_dims/strided_slice_1/stack_2"], "attr": {"new_axis_mask": {"i": "0"}, "end_mask": {"i": "0"}, "shrink_axis_mask": {"i": "0"}, "begin_mask": {"i": "1"}, "T": {"type": "DT_INT32"}, "ellipsis_mask": {"i": "0"}, "Index": {"type": "DT_INT32"}}}, {"name": "StatefulPartitionedCall/model/tf.compat.v1.nn.conv2d/squeeze_batch_dims/strided_slice", "op": "StridedSlice", "input": ["StatefulPartitionedCall/model/tf.compat.v1.nn.conv2d/squeeze_batch_dims/Shape", "StatefulPartitionedCall/model/tf.compat.v1.nn.conv2d/squeeze_batch_dims/strided_slice/stack", "StatefulPartitionedCall/model/tf.compat.v1.nn.conv2d/squeeze_batch_dims/strided_slice/stack_1", "StatefulPartitionedCall/model/tf.compat.v1.nn.conv2d/squeeze_batch_dims/strided_slice/stack_2"], "attr": {"begin_mask": {"i": "0"}, "Index": {"type": "DT_INT32"}, "shrink_axis_mask": {"i": "0"}, "end_mask": {"i": "1"}, "new_axis_mask": {"i": "0"}, "T": {"type": "DT_INT32"}, "ellipsis_mask": {"i": "0"}}}, {"name": "StatefulPartitionedCall/model/tf.compat.v1.nn.conv2d/squeeze_batch_dims/concat", "op": "ConcatV2", "input": ["StatefulPartitionedCall/model/tf.compat.v1.nn.conv2d/squeeze_batch_dims/concat/values_0", "StatefulPartitionedCall/model/tf.compat.v1.nn.conv2d/squeeze_batch_dims/strided_slice", "StatefulPartitionedCall/model/tf.compat.v1.nn.conv2d/squeeze_batch_dims/concat/axis"], "attr": {"T": {"type": "DT_INT32"}, "N": {"i": "2"}, "Tidx": {"type": "DT_INT32"}}}, {"name": "StatefulPartitionedCall/model/tf.compat.v1.nn.conv2d/squeeze_batch_dims/Reshape", "op": "Reshape", "input": ["StatefulPartitionedCall/model/tf.math.multiply_3/Mul", "StatefulPartitionedCall/model/tf.compat.v1.nn.conv2d/squeeze_batch_dims/concat"], "attr": {"T": {"type": "DT_FLOAT"}, "Tshape": {"type": "DT_INT32"}}}, {"name": "StatefulPartitionedCall/model/tf.compat.v1.nn.conv2d/squeeze_batch_dims/Conv2D", "op": "Conv2D", "input": ["StatefulPartitionedCall/model/tf.compat.v1.nn.conv2d/squeeze_batch_dims/Reshape", "StatefulPartitionedCall/model/tf.compat.v1.nn.conv2d/squeeze_batch_dims/Conv2D/filter"], "device": "/device:CPU:0", "attr": {"data_format": {"s": "TkhXQw=="}, "padding": {"s": "U0FNRQ=="}, "use_cudnn_on_gpu": {"b": true}, "strides": {"list": {"i": ["1", "1", "1", "1"]}}, "T": {"type": "DT_FLOAT"}, "explicit_paddings": {"list": {}}, "dilations": {"list": {"i": ["1", "1", "1", "1"]}}}}, {"name": "StatefulPartitionedCall/model/tf.compat.v1.nn.conv2d/squeeze_batch_dims/Shape_2", "op": "Shape", "input": ["StatefulPartitionedCall/model/tf.compat.v1.nn.conv2d/squeeze_batch_dims/Conv2D"], "attr": {"out_type": {"type": "DT_INT32"}, "T": {"type": "DT_FLOAT"}}}, {"name": "StatefulPartitionedCall/model/tf.compat.v1.nn.conv2d/squeeze_batch_dims/strided_slice_2", "op": "StridedSlice", "input": ["StatefulPartitionedCall/model/tf.compat.v1.nn.conv2d/squeeze_batch_dims/Shape_2", "StatefulPartitionedCall/model/tf.compat.v1.nn.conv2d/squeeze_batch_dims/strided_slice_2/stack", "StatefulPartitionedCall/model/tf.compat.v1.nn.conv2d/squeeze_batch_dims/strided_slice_2/stack_1", "StatefulPartitionedCall/model/tf.compat.v1.nn.conv2d/squeeze_batch_dims/strided_slice_2/stack_2"], "attr": {"end_mask": {"i": "1"}, "T": {"type": "DT_INT32"}, "shrink_axis_mask": {"i": "0"}, "ellipsis_mask": {"i": "0"}, "begin_mask": {"i": "0"}, "Index": {"type": "DT_INT32"}, "new_axis_mask": {"i": "0"}}}, {"name": "StatefulPartitionedCall/model/tf.compat.v1.nn.conv2d/squeeze_batch_dims/concat_1", "op": "ConcatV2", "input": ["StatefulPartitionedCall/model/tf.compat.v1.nn.conv2d/squeeze_batch_dims/strided_slice_1", "StatefulPartitionedCall/model/tf.compat.v1.nn.conv2d/squeeze_batch_dims/strided_slice_2", "StatefulPartitionedCall/model/tf.compat.v1.nn.conv2d/squeeze_batch_dims/concat_1/axis"], "attr": {"T": {"type": "DT_INT32"}, "N": {"i": "2"}, "Tidx": {"type": "DT_INT32"}}}, {"name": "StatefulPartitionedCall/model/tf.compat.v1.nn.conv2d/squeeze_batch_dims/Reshape_1", "op": "Reshape", "input": ["StatefulPartitionedCall/model/tf.compat.v1.nn.conv2d/squeeze_batch_dims/Conv2D", "StatefulPartitionedCall/model/tf.compat.v1.nn.conv2d/squeeze_batch_dims/concat_1"], "attr": {"Tshape": {"type": "DT_INT32"}, "T": {"type": "DT_FLOAT"}}}, {"name": "StatefulPartitionedCall/model/tf.nn.max_pool/MaxPool3D", "op": "MaxPool3D", "input": ["StatefulPartitionedCall/model/tf.compat.v1.nn.conv2d/squeeze_batch_dims/Reshape_1"], "attr": {"ksize": {"list": {"i": ["1", "1", "3", "3", "3"]}}, "data_format": {"s": "TkNESFc="}, "strides": {"list": {"i": ["1", "1", "1", "1", "1"]}}, "T": {"type": "DT_FLOAT"}, "padding": {"s": "U0FNRQ=="}}}, {"name": "StatefulPartitionedCall/model/tf.math.greater_equal/GreaterEqual", "op": "GreaterEqual", "input": ["StatefulPartitionedCall/model/tf.compat.v1.nn.conv2d/squeeze_batch_dims/Reshape_1", "StatefulPartitionedCall/model/tf.math.greater_equal/GreaterEqual/y"], "attr": {"T": {"type": "DT_FLOAT"}}}, {"name": "StatefulPartitionedCall/model/tf.math.subtract_1/Sub", "op": "Sub", "input": ["StatefulPartitionedCall/model/tf.nn.max_pool/MaxPool3D", "StatefulPartitionedCall/model/tf.compat.v1.nn.conv2d/squeeze_batch_dims/Reshape_1"], "attr": {"T": {"type": "DT_FLOAT"}}}, {"name": "StatefulPartitionedCall/model/tf.__operators__.eq/Equal", "op": "Equal", "input": ["StatefulPartitionedCall/model/tf.math.subtract_1/Sub", "StatefulPartitionedCall/model/tf.__operators__.eq/Equal/y"], "attr": {"T": {"type": "DT_FLOAT"}, "incompatible_shape_error": {"b": false}}}, {"name": "StatefulPartitionedCall/model/tf.math.logical_and/LogicalAnd", "op": "LogicalAnd", "input": ["StatefulPartitionedCall/model/tf.__operators__.eq/Equal", "StatefulPartitionedCall/model/tf.math.greater_equal/GreaterEqual"]}, {"name": "StatefulPartitionedCall/model/tf.cast/Cast", "op": "Cast", "input": ["StatefulPartitionedCall/model/tf.math.logical_and/LogicalAnd"], "attr": {"DstT": {"type": "DT_FLOAT"}, "Truncate": {"b": false}, "SrcT": {"type": "DT_BOOL"}}}, {"name": "StatefulPartitionedCall/model/tf.math.multiply_4/Mul", "op": "Mul", "input": ["StatefulPartitionedCall/model/tf.compat.v1.nn.conv2d/squeeze_batch_dims/Reshape_1", "StatefulPartitionedCall/model/tf.cast/Cast"], "attr": {"T": {"type": "DT_FLOAT"}}}, {"name": "StatefulPartitionedCall/model/tf.compat.v1.squeeze/Squeeze", "op": "Squeeze", "input": ["StatefulPartitionedCall/model/tf.math.multiply_4/Mul"], "attr": {"squeeze_dims": {"list": {"i": ["-1"]}}, "T": {"type": "DT_FLOAT"}}}, {"name": "StatefulPartitionedCall/model/tf.where/Where", "op": "Where", "input": ["StatefulPartitionedCall/model/tf.compat.v1.squeeze/Squeeze"], "attr": {"T": {"type": "DT_FLOAT"}}}, {"name": "StatefulPartitionedCall/model/tf.compat.v1.gather_nd/GatherNd", "op": "GatherNd", "input": ["StatefulPartitionedCall/model/tf.compat.v1.nn.conv2d_1/squeeze_batch_dims/Reshape_1", "StatefulPartitionedCall/model/tf.where/Where"], "attr": {"Tindices": {"type": "DT_INT64"}, "Tparams": {"type": "DT_FLOAT"}}}, {"name": "StatefulPartitionedCall/model/tf.__operators__.getitem_3/strided_slice", "op": "StridedSlice", "input": ["StatefulPartitionedCall/model/tf.where/Where", "StatefulPartitionedCall/model/tf.__operators__.getitem_3/strided_slice/stack", "StatefulPartitionedCall/model/tf.__operators__.getitem_3/strided_slice/stack_1", "StatefulPartitionedCall/model/tf.__operators__.getitem_3/strided_slice/stack_2"], "attr": {"begin_mask": {"i": "1"}, "Index": {"type": "DT_INT32"}, "shrink_axis_mask": {"i": "0"}, "end_mask": {"i": "3"}, "new_axis_mask": {"i": "0"}, "T": {"type": "DT_INT64"}, "ellipsis_mask": {"i": "0"}}}, {"name": "StatefulPartitionedCall/model/tf.compat.v1.gather_nd_1/GatherNd", "op": "GatherNd", "input": ["StatefulPartitionedCall/model/tf.compat.v1.nn.conv2d_2/squeeze_batch_dims/Reshape_1", "StatefulPartitionedCall/model/tf.where/Where"], "attr": {"Tparams": {"type": "DT_FLOAT"}, "Tindices": {"type": "DT_INT64"}}}, {"name": "StatefulPartitionedCall/model/tf.__operators__.getitem_2/strided_slice", "op": "StridedSlice", "input": ["StatefulPartitionedCall/model/tf.where/Where", "StatefulPartitionedCall/model/tf.__operators__.getitem_2/strided_slice/stack", "StatefulPartitionedCall/model/tf.__operators__.getitem_2/strided_slice/stack_1", "StatefulPartitionedCall/model/tf.__operators__.getitem_2/strided_slice/stack_2"], "attr": {"new_axis_mask": {"i": "0"}, "end_mask": {"i": "1"}, "shrink_axis_mask": {"i": "2"}, "begin_mask": {"i": "1"}, "T": {"type": "DT_INT64"}, "ellipsis_mask": {"i": "0"}, "Index": {"type": "DT_INT32"}}}, {"name": "StatefulPartitionedCall/model/tf.compat.v1.gather_nd_2/GatherNd", "op": "GatherNd", "input": ["StatefulPartitionedCall/model/tf.compat.v1.squeeze/Squeeze", "StatefulPartitionedCall/model/tf.where/Where"], "attr": {"Tindices": {"type": "DT_INT64"}, "Tparams": {"type": "DT_FLOAT"}}}, {"name": "StatefulPartitionedCall/model/tf.cast_2/Cast", "op": "Cast", "input": ["StatefulPartitionedCall/model/tf.__operators__.getitem_3/strided_slice"], "attr": {"SrcT": {"type": "DT_INT64"}, "Truncate": {"b": false}, "DstT": {"type": "DT_FLOAT"}}}, {"name": "StatefulPartitionedCall/model/tf.__operators__.getitem_4/strided_slice", "op": "StridedSlice", "input": ["StatefulPartitionedCall/model/tf.compat.v1.gather_nd_1/GatherNd", "StatefulPartitionedCall/model/tf.__operators__.getitem_4/strided_slice/stack", "StatefulPartitionedCall/model/tf.__operators__.getitem_4/strided_slice/stack_1", "StatefulPartitionedCall/model/tf.__operators__.getitem_4/strided_slice/stack_2"], "attr": {"new_axis_mask": {"i": "0"}, "end_mask": {"i": "1"}, "shrink_axis_mask": {"i": "2"}, "begin_mask": {"i": "1"}, "T": {"type": "DT_FLOAT"}, "ellipsis_mask": {"i": "0"}, "Index": {"type": "DT_INT32"}}}, {"name": "StatefulPartitionedCall/model/tf.__operators__.getitem_5/strided_slice", "op": "StridedSlice", "input": ["StatefulPartitionedCall/model/tf.compat.v1.gather_nd_1/GatherNd", "StatefulPartitionedCall/model/tf.__operators__.getitem_5/strided_slice/stack", "StatefulPartitionedCall/model/tf.__operators__.getitem_5/strided_slice/stack_1", "StatefulPartitionedCall/model/tf.__operators__.getitem_5/strided_slice/stack_2"], "attr": {"begin_mask": {"i": "1"}, "Index": {"type": "DT_INT32"}, "shrink_axis_mask": {"i": "2"}, "end_mask": {"i": "1"}, "new_axis_mask": {"i": "0"}, "T": {"type": "DT_FLOAT"}, "ellipsis_mask": {"i": "0"}}}, {"name": "StatefulPartitionedCall/model/tf.cast_1/Cast", "op": "Cast", "input": ["StatefulPartitionedCall/model/tf.__operators__.getitem_2/strided_slice"], "attr": {"SrcT": {"type": "DT_INT64"}, "Truncate": {"b": false}, "DstT": {"type": "DT_FLOAT"}}}, {"name": "StatefulPartitionedCall/model/tf.__operators__.add/AddV2", "op": "AddV2", "input": ["StatefulPartitionedCall/model/tf.compat.v1.gather_nd/GatherNd", "StatefulPartitionedCall/model/tf.cast_2/Cast"], "attr": {"T": {"type": "DT_FLOAT"}}}, {"name": "StatefulPartitionedCall/model/tf.math.atan2/Atan2", "op": "Atan2", "input": ["StatefulPartitionedCall/model/tf.__operators__.getitem_4/strided_slice", "StatefulPartitionedCall/model/tf.__operators__.getitem_5/strided_slice"], "attr": {"T": {"type": "DT_FLOAT"}}}, {"name": "StatefulPartitionedCall/model/tf.__operators__.getitem_6/strided_slice", "op": "StridedSlice", "input": ["StatefulPartitionedCall/model/tf.__operators__.add/AddV2", "StatefulPartitionedCall/model/tf.__operators__.getitem_6/strided_slice/stack", "StatefulPartitionedCall/model/tf.__operators__.getitem_6/strided_slice/stack_1", "StatefulPartitionedCall/model/tf.__operators__.getitem_6/strided_slice/stack_2"], "attr": {"begin_mask": {"i": "1"}, "Index": {"type": "DT_INT32"}, "shrink_axis_mask": {"i": "2"}, "end_mask": {"i": "1"}, "new_axis_mask": {"i": "0"}, "T": {"type": "DT_FLOAT"}, "ellipsis_mask": {"i": "0"}}}, {"name": "StatefulPartitionedCall/model/tf.__operators__.getitem_7/strided_slice", "op": "StridedSlice", "input": ["StatefulPartitionedCall/model/tf.__operators__.add/AddV2", "StatefulPartitionedCall/model/tf.__operators__.getitem_7/strided_slice/stack", "StatefulPartitionedCall/model/tf.__operators__.getitem_7/strided_slice/stack_1", "StatefulPartitionedCall/model/tf.__operators__.getitem_7/strided_slice/stack_2"], "attr": {"begin_mask": {"i": "1"}, "Index": {"type": "DT_INT32"}, "shrink_axis_mask": {"i": "2"}, "end_mask": {"i": "1"}, "new_axis_mask": {"i": "0"}, "T": {"type": "DT_FLOAT"}, "ellipsis_mask": {"i": "0"}}}, {"name": "StatefulPartitionedCall/model/tf.stack_1/stack", "op": "Pack", "input": ["StatefulPartitionedCall/model/tf.__operators__.getitem_6/strided_slice", "StatefulPartitionedCall/model/tf.__operators__.getitem_7/strided_slice", "StatefulPartitionedCall/model/tf.math.atan2/Atan2", "StatefulPartitionedCall/model/tf.cast_1/Cast", "StatefulPartitionedCall/model/tf.compat.v1.gather_nd_2/GatherNd"], "attr": {"N": {"i": "5"}, "axis": {"i": "1"}, "T": {"type": "DT_FLOAT"}}}, {"name": "Identity", "op": "Identity", "input": ["StatefulPartitionedCall/model/tf.stack_1/stack"], "attr": {"T": {"type": "DT_FLOAT"}}}], "library": {}, "versions": {"producer": 561}}, "weightsManifest": [{"paths": ["group1-shard1of3.bin", "group1-shard2of3.bin", "group1-shard3of3.bin"], "weights": [{"name": "StatefulPartitionedCall/model/tf.__operators__.getitem_6/strided_slice/stack", "shape": [2], "dtype": "int32"}, {"name": "StatefulPartitionedCall/model/tf.__operators__.getitem_6/strided_slice/stack_1", "shape": [2], "dtype": "int32"}, {"name": "StatefulPartitionedCall/model/tf.__operators__.getitem_6/strided_slice/stack_2", "shape": [2], "dtype": "int32"}, {"name": "StatefulPartitionedCall/model/tf.compat.v1.nn.conv2d_1/squeeze_batch_dims/strided_slice_1/stack", "shape": [1], "dtype": "int32"}, {"name": "StatefulPartitionedCall/model/tf.compat.v1.nn.conv2d_1/squeeze_batch_dims/strided_slice_1/stack_1", "shape": [1], "dtype": "int32"}, {"name": "StatefulPartitionedCall/model/tf.compat.v1.nn.conv2d_1/squeeze_batch_dims/strided_slice_1/stack_2", "shape": [1], "dtype": "int32"}, {"name": "StatefulPartitionedCall/model/tf.compat.v1.nn.conv2d_1/squeeze_batch_dims/concat/values_0", "shape": [1], "dtype": "int32"}, {"name": "StatefulPartitionedCall/model/tf.compat.v1.nn.conv2d_1/squeeze_batch_dims/strided_slice/stack", "shape": [1], "dtype": "int32"}, {"name": "StatefulPartitionedCall/model/tf.compat.v1.nn.conv2d_1/squeeze_batch_dims/strided_slice/stack_1", "shape": [1], "dtype": "int32"}, {"name": "StatefulPartitionedCall/model/tf.compat.v1.nn.conv2d_1/squeeze_batch_dims/strided_slice/stack_2", "shape": [1], "dtype": "int32"}, {"name": "StatefulPartitionedCall/model/tf.compat.v1.nn.conv2d_1/squeeze_batch_dims/concat/axis", "shape": [], "dtype": "int32"}, {"name": "StatefulPartitionedCall/model/tf.compat.v1.nn.conv2d_1/squeeze_batch_dims/Conv2D/filter", "shape": [3, 3, 2, 2], "dtype": "float32", "quantization": {"dtype": "float16", "original_dtype": "float32"}}, {"name": "StatefulPartitionedCall/model/tf.compat.v1.nn.conv2d_1/squeeze_batch_dims/strided_slice_2/stack", "shape": [1], "dtype": "int32"}, {"name": "StatefulPartitionedCall/model/tf.compat.v1.nn.conv2d_1/squeeze_batch_dims/strided_slice_2/stack_1", "shape": [1], "dtype": "int32"}, {"name": "StatefulPartitionedCall/model/tf.compat.v1.nn.conv2d_1/squeeze_batch_dims/strided_slice_2/stack_2", "shape": [1], "dtype": "int32"}, {"name": "StatefulPartitionedCall/model/tf.compat.v1.nn.conv2d_1/squeeze_batch_dims/concat_1/axis", "shape": [], "dtype": "int32"}, {"name": "StatefulPartitionedCall/model/tf.__operators__.getitem_3/strided_slice/stack", "shape": [2], "dtype": "int32"}, {"name": "StatefulPartitionedCall/model/tf.__operators__.getitem_3/strided_slice/stack_1", "shape": [2], "dtype": "int32"}, {"name": "StatefulPartitionedCall/model/tf.__operators__.getitem_3/strided_slice/stack_2", "shape": [2], "dtype": "int32"}, {"name": "StatefulPartitionedCall/model/tf.__operators__.getitem_7/strided_slice/stack", "shape": [2], "dtype": "int32"}, {"name": "StatefulPartitionedCall/model/tf.__operators__.getitem_7/strided_slice/stack_1", "shape": [2], "dtype": "int32"}, {"name": "StatefulPartitionedCall/model/tf.__operators__.getitem_7/strided_slice/stack_2", "shape": [2], "dtype": "int32"}, {"name": "StatefulPartitionedCall/model/tf.__operators__.getitem_4/strided_slice/stack", "shape": [2], "dtype": "int32"}, {"name": "StatefulPartitionedCall/model/tf.__operators__.getitem_4/strided_slice/stack_1", "shape": [2], "dtype": "int32"}, {"name": "StatefulPartitionedCall/model/tf.__operators__.getitem_4/strided_slice/stack_2", "shape": [2], "dtype": "int32"}, {"name": "StatefulPartitionedCall/model/tf.compat.v1.nn.conv2d_2/squeeze_batch_dims/strided_slice_1/stack", "shape": [1], "dtype": "int32"}, {"name": "StatefulPartitionedCall/model/tf.compat.v1.nn.conv2d_2/squeeze_batch_dims/strided_slice_1/stack_1", "shape": [1], "dtype": "int32"}, {"name": "StatefulPartitionedCall/model/tf.compat.v1.nn.conv2d_2/squeeze_batch_dims/strided_slice_1/stack_2", "shape": [1], "dtype": "int32"}, {"name": "StatefulPartitionedCall/model/tf.compat.v1.nn.conv2d_2/squeeze_batch_dims/concat/values_0", "shape": [1], "dtype": "int32"}, {"name": "StatefulPartitionedCall/model/tf.__operators__.getitem_1/strided_slice/stack", "shape": [5], "dtype": "int32"}, {"name": "StatefulPartitionedCall/model/tf.__operators__.getitem_1/strided_slice/stack_1", "shape": [5], "dtype": "int32"}, {"name": "StatefulPartitionedCall/model/tf.__operators__.getitem_1/strided_slice/stack_2", "shape": [5], "dtype": "int32"}, {"name": "StatefulPartitionedCall/model/tf.compat.v1.nn.conv2d_2/squeeze_batch_dims/strided_slice/stack", "shape": [1], "dtype": "int32"}, {"name": "StatefulPartitionedCall/model/tf.compat.v1.nn.conv2d_2/squeeze_batch_dims/strided_slice/stack_1", "shape": [1], "dtype": "int32"}, {"name": "StatefulPartitionedCall/model/tf.compat.v1.nn.conv2d_2/squeeze_batch_dims/strided_slice/stack_2", "shape": [1], "dtype": "int32"}, {"name": "StatefulPartitionedCall/model/tf.compat.v1.nn.conv2d_2/squeeze_batch_dims/concat/axis", "shape": [], "dtype": "int32"}, {"name": "StatefulPartitionedCall/model/tf.compat.v1.nn.conv2d_2/squeeze_batch_dims/Conv2D/filter", "shape": [3, 3, 2, 2], "dtype": "float32", "quantization": {"dtype": "float16", "original_dtype": "float32"}}, {"name": "StatefulPartitionedCall/model/tf.compat.v1.nn.conv2d_2/squeeze_batch_dims/strided_slice_2/stack", "shape": [1], "dtype": "int32"}, {"name": "StatefulPartitionedCall/model/tf.compat.v1.nn.conv2d_2/squeeze_batch_dims/strided_slice_2/stack_1", "shape": [1], "dtype": "int32"}, {"name": "StatefulPartitionedCall/model/tf.compat.v1.nn.conv2d_2/squeeze_batch_dims/strided_slice_2/stack_2", "shape": [1], "dtype": "int32"}, {"name": "StatefulPartitionedCall/model/tf.compat.v1.nn.conv2d_2/squeeze_batch_dims/concat_1/axis", "shape": [], "dtype": "int32"}, {"name": "StatefulPartitionedCall/model/tf.__operators__.getitem_5/strided_slice/stack", "shape": [2], "dtype": "int32"}, {"name": "StatefulPartitionedCall/model/tf.__operators__.getitem_5/strided_slice/stack_1", "shape": [2], "dtype": "int32"}, {"name": "StatefulPartitionedCall/model/tf.__operators__.getitem_5/strided_slice/stack_2", "shape": [2], "dtype": "int32"}, {"name": "StatefulPartitionedCall/model/tf.__operators__.getitem_2/strided_slice/stack", "shape": [2], "dtype": "int32"}, {"name": "StatefulPartitionedCall/model/tf.__operators__.getitem_2/strided_slice/stack_1", "shape": [2], "dtype": "int32"}, {"name": "StatefulPartitionedCall/model/tf.__operators__.getitem_2/strided_slice/stack_2", "shape": [2], "dtype": "int32"}, {"name": "StatefulPartitionedCall/model/tf.__operators__.eq/Equal/y", "shape": [], "dtype": "float32", "quantization": {"dtype": "float16", "original_dtype": "float32"}}, {"name": "StatefulPartitionedCall/model/tf.compat.v1.nn.conv2d/squeeze_batch_dims/strided_slice_1/stack", "shape": [1], "dtype": "int32"}, {"name": "StatefulPartitionedCall/model/tf.compat.v1.nn.conv2d/squeeze_batch_dims/strided_slice_1/stack_1", "shape": [1], "dtype": "int32"}, {"name": "StatefulPartitionedCall/model/tf.compat.v1.nn.conv2d/squeeze_batch_dims/strided_slice_1/stack_2", "shape": [1], "dtype": "int32"}, {"name": "StatefulPartitionedCall/model/tf.compat.v1.nn.conv2d/squeeze_batch_dims/concat/values_0", "shape": [1], "dtype": "int32"}, {"name": "StatefulPartitionedCall/model/tf.math.multiply_2/Mul/y", "shape": [2], "dtype": "float32", "quantization": {"dtype": "float16", "original_dtype": "float32"}}, {"name": "unknown_23", "shape": [], "dtype": "float32", "quantization": {"dtype": "float16", "original_dtype": "float32"}}, {"name": "StatefulPartitionedCall/model/tf.math.multiply/Mul/y", "shape": [2], "dtype": "float32", "quantization": {"dtype": "float16", "original_dtype": "float32"}}, {"name": "StatefulPartitionedCall/model/tf.math.reduce_sum/Sum/reduction_indices", "shape": [], "dtype": "int32"}, {"name": "StatefulPartitionedCall/model/model/tf.math.subtract/Sub/y", "shape": [3], "dtype": "float32", "quantization": {"dtype": "float16", "original_dtype": "float32"}}, {"name": "StatefulPartitionedCall/model/model/conv2d/Conv2D/ReadVariableOp", "shape": [3, 3, 3, 32], "dtype": "float32", "quantization": {"dtype": "float16", "original_dtype": "float32"}}, {"name": "StatefulPartitionedCall/model/model/conv2d/BiasAdd/ReadVariableOp", "shape": [32], "dtype": "float32", "quantization": {"dtype": "float16", "original_dtype": "float32"}}, {"name": "StatefulPartitionedCall/model/model/conv2d_1/Conv2D/ReadVariableOp", "shape": [3, 3, 32, 32], "dtype": "float32", "quantization": {"dtype": "float16", "original_dtype": "float32"}}, {"name": "StatefulPartitionedCall/model/model/conv2d_1/BiasAdd/ReadVariableOp", "shape": [32], "dtype": "float32", "quantization": {"dtype": "float16", "original_dtype": "float32"}}, {"name": "StatefulPartitionedCall/model/model/conv2d_2/Conv2D/ReadVariableOp", "shape": [3, 3, 32, 64], "dtype": "float32", "quantization": {"dtype": "float16", "original_dtype": "float32"}}, {"name": "StatefulPartitionedCall/model/model/conv2d_2/BiasAdd/ReadVariableOp", "shape": [64], "dtype": "float32", "quantization": {"dtype": "float16", "original_dtype": "float32"}}, {"name": "StatefulPartitionedCall/model/model/conv2d_3/Conv2D/ReadVariableOp", "shape": [3, 3, 64, 64], "dtype": "float32", "quantization": {"dtype": "float16", "original_dtype": "float32"}}, {"name": "StatefulPartitionedCall/model/model/conv2d_3/BiasAdd/ReadVariableOp", "shape": [64], "dtype": "float32", "quantization": {"dtype": "float16", "original_dtype": "float32"}}, {"name": "StatefulPartitionedCall/model/model/conv2d_4/Conv2D/ReadVariableOp", "shape": [3, 3, 64, 128], "dtype": "float32", "quantization": {"dtype": "float16", "original_dtype": "float32"}}, {"name": "StatefulPartitionedCall/model/model/conv2d_4/BiasAdd/ReadVariableOp", "shape": [128], "dtype": "float32", "quantization": {"dtype": "float16", "original_dtype": "float32"}}, {"name": "StatefulPartitionedCall/model/model/conv2d_5/Conv2D/ReadVariableOp", "shape": [3, 3, 128, 128], "dtype": "float32", "quantization": {"dtype": "float16", "original_dtype": "float32"}}, {"name": "StatefulPartitionedCall/model/model/conv2d_5/BiasAdd/ReadVariableOp", "shape": [128], "dtype": "float32", "quantization": {"dtype": "float16", "original_dtype": "float32"}}, {"name": "StatefulPartitionedCall/model/model/conv2d_6/Conv2D/ReadVariableOp", "shape": [3, 3, 128, 256], "dtype": "float32", "quantization": {"dtype": "float16", "original_dtype": "float32"}}, {"name": "StatefulPartitionedCall/model/model/conv2d_6/BiasAdd/ReadVariableOp", "shape": [256], "dtype": "float32", "quantization": {"dtype": "float16", "original_dtype": "float32"}}, {"name": "StatefulPartitionedCall/model/model/conv2d_7/Conv2D/ReadVariableOp", "shape": [3, 3, 256, 256], "dtype": "float32", "quantization": {"dtype": "float16", "original_dtype": "float32"}}, {"name": "StatefulPartitionedCall/model/model/conv2d_7/BiasAdd/ReadVariableOp", "shape": [256], "dtype": "float32", "quantization": {"dtype": "float16", "original_dtype": "float32"}}, {"name": "StatefulPartitionedCall/model/model/conv2d_8/Conv2D/ReadVariableOp", "shape": [3, 3, 256, 512], "dtype": "float32", "quantization": {"dtype": "float16", "original_dtype": "float32"}}, {"name": "StatefulPartitionedCall/model/model/conv2d_8/BiasAdd/ReadVariableOp", "shape": [512], "dtype": "float32", "quantization": {"dtype": "float16", "original_dtype": "float32"}}, {"name": "StatefulPartitionedCall/model/model/conv2d_9/Conv2D/ReadVariableOp", "shape": [3, 3, 512, 512], "dtype": "float32", "quantization": {"dtype": "float16", "original_dtype": "float32"}}, {"name": "StatefulPartitionedCall/model/model/conv2d_9/BiasAdd/ReadVariableOp", "shape": [512], "dtype": "float32", "quantization": {"dtype": "float16", "original_dtype": "float32"}}, {"name": "StatefulPartitionedCall/model/model/up_sampling2d/strided_slice/stack", "shape": [1], "dtype": "int32"}, {"name": "StatefulPartitionedCall/model/model/up_sampling2d/strided_slice/stack_1", "shape": [1], "dtype": "int32"}, {"name": "StatefulPartitionedCall/model/model/up_sampling2d/strided_slice/stack_2", "shape": [1], "dtype": "int32"}, {"name": "StatefulPartitionedCall/model/model/up_sampling2d/Const", "shape": [2], "dtype": "int32"}, {"name": "StatefulPartitionedCall/model/model/tf.concat/concat/axis", "shape": [], "dtype": "int32"}, {"name": "StatefulPartitionedCall/model/conv2d/Conv2D/ReadVariableOp", "shape": [1, 1, 768, 32], "dtype": "float32", "quantization": {"dtype": "float16", "original_dtype": "float32"}}, {"name": "StatefulPartitionedCall/model/conv2d/BiasAdd/ReadVariableOp", "shape": [32], "dtype": "float32", "quantization": {"dtype": "float16", "original_dtype": "float32"}}, {"name": "StatefulPartitionedCall/model/conv2d_1/Conv2D/ReadVariableOp", "shape": [11, 11, 32, 4], "dtype": "float32", "quantization": {"dtype": "float16", "original_dtype": "float32"}}, {"name": "StatefulPartitionedCall/model/conv2d_1/BiasAdd/ReadVariableOp", "shape": [4], "dtype": "float32", "quantization": {"dtype": "float16", "original_dtype": "float32"}}, {"name": "StatefulPartitionedCall/model/tf.__operators__.getitem/strided_slice/stack", "shape": [5], "dtype": "int32"}, {"name": "StatefulPartitionedCall/model/tf.__operators__.getitem/strided_slice/stack_1", "shape": [5], "dtype": "int32"}, {"name": "StatefulPartitionedCall/model/tf.__operators__.getitem/strided_slice/stack_2", "shape": [5], "dtype": "int32"}, {"name": "StatefulPartitionedCall/model/tf.compat.v1.nn.conv2d/squeeze_batch_dims/strided_slice/stack", "shape": [1], "dtype": "int32"}, {"name": "StatefulPartitionedCall/model/tf.compat.v1.nn.conv2d/squeeze_batch_dims/strided_slice/stack_1", "shape": [1], "dtype": "int32"}, {"name": "StatefulPartitionedCall/model/tf.compat.v1.nn.conv2d/squeeze_batch_dims/strided_slice/stack_2", "shape": [1], "dtype": "int32"}, {"name": "StatefulPartitionedCall/model/tf.compat.v1.nn.conv2d/squeeze_batch_dims/concat/axis", "shape": [], "dtype": "int32"}, {"name": "StatefulPartitionedCall/model/tf.compat.v1.nn.conv2d/squeeze_batch_dims/Conv2D/filter", "shape": [7, 7, 2, 1], "dtype": "float32", "quantization": {"dtype": "float16", "original_dtype": "float32"}}, {"name": "StatefulPartitionedCall/model/tf.compat.v1.nn.conv2d/squeeze_batch_dims/strided_slice_2/stack", "shape": [1], "dtype": "int32"}, {"name": "StatefulPartitionedCall/model/tf.compat.v1.nn.conv2d/squeeze_batch_dims/strided_slice_2/stack_1", "shape": [1], "dtype": "int32"}, {"name": "StatefulPartitionedCall/model/tf.compat.v1.nn.conv2d/squeeze_batch_dims/strided_slice_2/stack_2", "shape": [1], "dtype": "int32"}, {"name": "StatefulPartitionedCall/model/tf.compat.v1.nn.conv2d/squeeze_batch_dims/concat_1/axis", "shape": [], "dtype": "int32"}, {"name": "StatefulPartitionedCall/model/tf.math.greater_equal/GreaterEqual/y", "shape": [], "dtype": "float32", "quantization": {"dtype": "float16", "original_dtype": "float32"}}, {"name": "ConstantFolding/StatefulPartitionedCall/model/tf.stack/stack_const_axis", "shape": [], "dtype": "int32"}]}]}